…
I0302 01:04:11.201318 23669 solver.cpp:91] Creating training net from net file: train.prototxt
I0302 01:04:11.215272 23669 net.cpp:49] Initializing net from parameters: 
name: "sungrbd"
state {
  phase: TRAIN
}
layer {
  name: "data"
  type: "ImageData"
  top: "data"
  top: "label"
  include {
    phase: TRAIN
  }
  transform_param {
    mirror: false
    crop_size: 128
    mean_value: 1
  }
  image_data_param {
    source: "/nfs/hn38/users/xiaolonw/sunrgbd/SUNRGBDtoolbox/trainlist2.txt"
    batch_size: 100
    shuffle: true
    new_height: 128
    new_width: 128
    root_folder: "/scratch/xiaolonw/sunrgbd/data/"
  }
}
layer {
  name: "da_conv1"
  type: "Convolution"
  bottom: "data"
  top: "da_conv1"
  param {
    lr_mult: 0
    decay_mult: 0
  }
  param {
    lr_mult: 0
    decay_mult: 0
  }
  convolution_param {
    num_output: 64
    pad: 2
    kernel_size: 5
    stride: 2
    weight_filler {
      type: "gaussian"
      std: 0.01
    }
    bias_filler {
      type: "constant"
      value: 0
    }
  }
}
layer {
  name: "da_relu1"
  type: "ReLU"
  bottom: "da_conv1"
  top: "da_conv1"
  relu_param {
    negative_slope: 0.2
  }
}
layer {
  name: "da_conv2"
  type: "Convolution"
  bottom: "da_conv1"
  top: "da_conv2"
  param {
    lr_mult: 0
    decay_mult: 0
  }
  param {
    lr_mult: 0
    decay_mult: 0
  }
  convolution_param {
    num_output: 128
    pad: 2
    kernel_size: 5
    stride: 2
    weight_filler {
      type: "gaussian"
      std: 0.01
    }
    bias_filler {
      type: "constant"
      value: 1
    }
  }
}
layer {
  name: "da_relu2"
  type: "ReLU"
  bottom: "da_conv2"
  top: "da_conv2"
  relu_param {
    negative_slope: 0.2
  }
}
layer {
  name: "da_conv3"
  type: "Convolution"
  bottom: "da_conv2"
  top: "da_conv3"
  param {
    lr_mult: 0
    decay_mult: 0
  }
  param {
    lr_mult: 0
    decay_mult: 0
  }
  convolution_param {
    num_output: 256
    pad: 1
    kernel_size: 3
    stride: 2
    weight_filler {
      type: "gaussian"
      std: 0.01
    }
    bias_filler {
      type: "constant"
      value: 0
    }
  }
}
layer {
  name: "da_relu3"
  type: "ReLU"
  bottom: "da_conv3"
  top: "da_conv3"
  relu_param {
    negative_slope: 0.2
  }
}
layer {
  name: "da_conv4"
  type: "Convolution"
  bottom: "da_conv3"
  top: "da_conv4"
  param {
    lr_mult: 0
    decay_mult: 0
  }
  param {
    lr_mult: 0
    decay_mult: 0
  }
  convolution_param {
    num_output: 512
    pad: 1
    kernel_size: 3
    stride: 2
    weight_filler {
      type: "gaussian"
      std: 0.01
    }
    bias_filler {
      type: "constant"
      value: 1
    }
  }
}
layer {
  name: "da_relu4"
  type: "ReLU"
  bottom: "da_conv4"
  top: "da_conv4"
  relu_param {
    negative_slope: 0.2
  }
}
layer {
  name: "da_conv5"
  type: "Convolution"
  bottom: "da_conv4"
  top: "da_conv5"
  param {
    lr_mult: 0
    decay_mult: 0
  }
  param {
    lr_mult: 0
    decay_mult: 0
  }
  convolution_param {
    num_output: 128
    pad: 1
    kernel_size: 3
    stride: 1
    weight_filler {
      type: "gaussian"
      std: 0.01
    }
    bias_filler {
      type: "constant"
      value: 1
    }
  }
}
layer {
  name: "da_relu5"
  type: "ReLU"
  bottom: "da_conv5"
  top: "da_conv5"
  relu_param {
    negative_slope: 0.2
  }
}
layer {
  name: "pool5"
  type: "Pooling"
  bottom: "da_conv5"
  top: "pool5"
  pooling_param {
    pool: MAX
    kernel_size: 3
    stride: 2
  }
}
layer {
  name: "cls_score"
  type: "InnerProduct"
  bottom: "pool5"
  top: "cls_score"
  param {
    lr_mult: 1
    decay_mult: 1
  }
  param {
    lr_mult: 2
    decay_mult: 0
  }
  inner_product_param {
    num_output: 19
    weight_filler {
      type: "gaussian"
      std: 0.01
    }
    bias_filler {
      type: "constant"
      value: 0
    }
  }
}
layer {
  name: "loss_cls"
  type: "SoftmaxWithLoss"
  bottom: "cls_score"
  bottom: "label"
  top: "loss_cls"
}
I0302 01:04:11.215361 23669 layer_factory.hpp:77] Creating layer data
I0302 01:04:11.215384 23669 net.cpp:106] Creating Layer data
I0302 01:04:11.215390 23669 net.cpp:411] data -> data
I0302 01:04:11.215407 23669 net.cpp:411] data -> label
I0302 01:04:11.216001 23669 image_data_layer.cpp:38] Opening file /nfs/hn38/users/xiaolonw/sunrgbd/SUNRGBDtoolbox/trainlist2.txt
I0302 01:04:11.225029 23669 image_data_layer.cpp:51] Shuffling data
I0302 01:04:11.226155 23669 image_data_layer.cpp:56] A total of 4845 images.
I0302 01:04:11.269531 23669 image_data_layer.cpp:84] output data size: 100,6,128,128
I0302 01:04:11.369343 23669 net.cpp:150] Setting up data
I0302 01:04:11.369386 23669 net.cpp:157] Top shape: 100 6 128 128 (9830400)
I0302 01:04:11.369396 23669 net.cpp:157] Top shape: 100 (100)
I0302 01:04:11.369400 23669 net.cpp:165] Memory required for data: 39322000
I0302 01:04:11.369408 23669 layer_factory.hpp:77] Creating layer da_conv1
I0302 01:04:11.369428 23669 net.cpp:106] Creating Layer da_conv1
I0302 01:04:11.369434 23669 net.cpp:454] da_conv1 <- data
I0302 01:04:11.369443 23669 net.cpp:411] da_conv1 -> da_conv1
I0302 01:04:11.370896 23669 net.cpp:150] Setting up da_conv1
I0302 01:04:11.370910 23669 net.cpp:157] Top shape: 100 64 64 64 (26214400)
I0302 01:04:11.370914 23669 net.cpp:165] Memory required for data: 144179600
I0302 01:04:11.370928 23669 layer_factory.hpp:77] Creating layer da_relu1
I0302 01:04:11.370936 23669 net.cpp:106] Creating Layer da_relu1
I0302 01:04:11.370941 23669 net.cpp:454] da_relu1 <- da_conv1
I0302 01:04:11.370947 23669 net.cpp:397] da_relu1 -> da_conv1 (in-place)
I0302 01:04:11.370961 23669 net.cpp:150] Setting up da_relu1
I0302 01:04:11.370967 23669 net.cpp:157] Top shape: 100 64 64 64 (26214400)
I0302 01:04:11.370973 23669 net.cpp:165] Memory required for data: 249037200
I0302 01:04:11.370977 23669 layer_factory.hpp:77] Creating layer da_conv2
I0302 01:04:11.370985 23669 net.cpp:106] Creating Layer da_conv2
I0302 01:04:11.370990 23669 net.cpp:454] da_conv2 <- da_conv1
I0302 01:04:11.370997 23669 net.cpp:411] da_conv2 -> da_conv2
I0302 01:04:11.375293 23669 net.cpp:150] Setting up da_conv2
I0302 01:04:11.375304 23669 net.cpp:157] Top shape: 100 128 32 32 (13107200)
I0302 01:04:11.375308 23669 net.cpp:165] Memory required for data: 301466000
I0302 01:04:11.375319 23669 layer_factory.hpp:77] Creating layer da_relu2
I0302 01:04:11.375325 23669 net.cpp:106] Creating Layer da_relu2
I0302 01:04:11.375329 23669 net.cpp:454] da_relu2 <- da_conv2
I0302 01:04:11.375336 23669 net.cpp:397] da_relu2 -> da_conv2 (in-place)
I0302 01:04:11.375345 23669 net.cpp:150] Setting up da_relu2
I0302 01:04:11.375351 23669 net.cpp:157] Top shape: 100 128 32 32 (13107200)
I0302 01:04:11.375355 23669 net.cpp:165] Memory required for data: 353894800
I0302 01:04:11.375357 23669 layer_factory.hpp:77] Creating layer da_conv3
I0302 01:04:11.375365 23669 net.cpp:106] Creating Layer da_conv3
I0302 01:04:11.375370 23669 net.cpp:454] da_conv3 <- da_conv2
I0302 01:04:11.375376 23669 net.cpp:411] da_conv3 -> da_conv3
I0302 01:04:11.383072 23669 net.cpp:150] Setting up da_conv3
I0302 01:04:11.383088 23669 net.cpp:157] Top shape: 100 256 16 16 (6553600)
I0302 01:04:11.383092 23669 net.cpp:165] Memory required for data: 380109200
I0302 01:04:11.383103 23669 layer_factory.hpp:77] Creating layer da_relu3
I0302 01:04:11.383111 23669 net.cpp:106] Creating Layer da_relu3
I0302 01:04:11.383116 23669 net.cpp:454] da_relu3 <- da_conv3
I0302 01:04:11.383121 23669 net.cpp:397] da_relu3 -> da_conv3 (in-place)
I0302 01:04:11.383131 23669 net.cpp:150] Setting up da_relu3
I0302 01:04:11.383136 23669 net.cpp:157] Top shape: 100 256 16 16 (6553600)
I0302 01:04:11.383141 23669 net.cpp:165] Memory required for data: 406323600
I0302 01:04:11.383142 23669 layer_factory.hpp:77] Creating layer da_conv4
I0302 01:04:11.383150 23669 net.cpp:106] Creating Layer da_conv4
I0302 01:04:11.383153 23669 net.cpp:454] da_conv4 <- da_conv3
I0302 01:04:11.383162 23669 net.cpp:411] da_conv4 -> da_conv4
I0302 01:04:11.403247 23669 net.cpp:150] Setting up da_conv4
I0302 01:04:11.403261 23669 net.cpp:157] Top shape: 100 512 8 8 (3276800)
I0302 01:04:11.403265 23669 net.cpp:165] Memory required for data: 419430800
I0302 01:04:11.403272 23669 layer_factory.hpp:77] Creating layer da_relu4
I0302 01:04:11.403280 23669 net.cpp:106] Creating Layer da_relu4
I0302 01:04:11.403285 23669 net.cpp:454] da_relu4 <- da_conv4
I0302 01:04:11.403290 23669 net.cpp:397] da_relu4 -> da_conv4 (in-place)
I0302 01:04:11.403298 23669 net.cpp:150] Setting up da_relu4
I0302 01:04:11.403303 23669 net.cpp:157] Top shape: 100 512 8 8 (3276800)
I0302 01:04:11.403306 23669 net.cpp:165] Memory required for data: 432538000
I0302 01:04:11.403309 23669 layer_factory.hpp:77] Creating layer da_conv5
I0302 01:04:11.403318 23669 net.cpp:106] Creating Layer da_conv5
I0302 01:04:11.403322 23669 net.cpp:454] da_conv5 <- da_conv4
I0302 01:04:11.403328 23669 net.cpp:411] da_conv5 -> da_conv5
I0302 01:04:11.413513 23669 net.cpp:150] Setting up da_conv5
I0302 01:04:11.413527 23669 net.cpp:157] Top shape: 100 128 8 8 (819200)
I0302 01:04:11.413529 23669 net.cpp:165] Memory required for data: 435814800
I0302 01:04:11.413539 23669 layer_factory.hpp:77] Creating layer da_relu5
I0302 01:04:11.413547 23669 net.cpp:106] Creating Layer da_relu5
I0302 01:04:11.413549 23669 net.cpp:454] da_relu5 <- da_conv5
I0302 01:04:11.413557 23669 net.cpp:397] da_relu5 -> da_conv5 (in-place)
I0302 01:04:11.413565 23669 net.cpp:150] Setting up da_relu5
I0302 01:04:11.413570 23669 net.cpp:157] Top shape: 100 128 8 8 (819200)
I0302 01:04:11.413573 23669 net.cpp:165] Memory required for data: 439091600
I0302 01:04:11.413576 23669 layer_factory.hpp:77] Creating layer pool5
I0302 01:04:11.413583 23669 net.cpp:106] Creating Layer pool5
I0302 01:04:11.413588 23669 net.cpp:454] pool5 <- da_conv5
I0302 01:04:11.413591 23669 net.cpp:411] pool5 -> pool5
I0302 01:04:11.413635 23669 net.cpp:150] Setting up pool5
I0302 01:04:11.413642 23669 net.cpp:157] Top shape: 100 128 4 4 (204800)
I0302 01:04:11.413645 23669 net.cpp:165] Memory required for data: 439910800
I0302 01:04:11.413648 23669 layer_factory.hpp:77] Creating layer cls_score
I0302 01:04:11.413658 23669 net.cpp:106] Creating Layer cls_score
I0302 01:04:11.413662 23669 net.cpp:454] cls_score <- pool5
I0302 01:04:11.413669 23669 net.cpp:411] cls_score -> cls_score
I0302 01:04:11.414849 23669 net.cpp:150] Setting up cls_score
I0302 01:04:11.414860 23669 net.cpp:157] Top shape: 100 19 (1900)
I0302 01:04:11.414863 23669 net.cpp:165] Memory required for data: 439918400
I0302 01:04:11.414870 23669 layer_factory.hpp:77] Creating layer loss_cls
I0302 01:04:11.414880 23669 net.cpp:106] Creating Layer loss_cls
I0302 01:04:11.414885 23669 net.cpp:454] loss_cls <- cls_score
I0302 01:04:11.414888 23669 net.cpp:454] loss_cls <- label
I0302 01:04:11.414893 23669 net.cpp:411] loss_cls -> loss_cls
…
