…
I0301 21:47:53.037103  9663 solver.cpp:91] Creating training net from net file: train.prototxt
I0301 21:47:53.039108  9663 net.cpp:49] Initializing net from parameters: 
name: "sungrbd"
state {
  phase: TRAIN
}
layer {
  name: "data"
  type: "ImageData"
  top: "data"
  top: "label"
  include {
    phase: TRAIN
  }
  transform_param {
    mirror: false
    crop_size: 128
    mean_value: 1
  }
  image_data_param {
    source: "/nfs/hn38/users/xiaolonw/sunrgbd/SUNRGBDtoolbox/trainlist2.txt"
    batch_size: 100
    shuffle: true
    new_height: 128
    new_width: 128
    root_folder: "/scratch/xiaolonw/sunrgbd/data/"
  }
}
layer {
  name: "da_conv1"
  type: "Convolution"
  bottom: "data"
  top: "da_conv1"
  param {
    lr_mult: 1
    decay_mult: 1
  }
  param {
    lr_mult: 2
    decay_mult: 0
  }
  convolution_param {
    num_output: 64
    pad: 2
    kernel_size: 5
    stride: 2
    weight_filler {
      type: "gaussian"
      std: 0.01
    }
    bias_filler {
      type: "constant"
      value: 0
    }
  }
}
layer {
  name: "bn1"
  type: "BatchNorm"
  bottom: "da_conv1"
  top: "bn1"
}
layer {
  name: "da_relu1"
  type: "ReLU"
  bottom: "bn1"
  top: "bn1"
  relu_param {
    negative_slope: 0.2
  }
}
layer {
  name: "da_conv2"
  type: "Convolution"
  bottom: "bn1"
  top: "da_conv2"
  param {
    lr_mult: 1
    decay_mult: 1
  }
  param {
    lr_mult: 2
    decay_mult: 0
  }
  convolution_param {
    num_output: 128
    pad: 2
    kernel_size: 5
    stride: 2
    weight_filler {
      type: "gaussian"
      std: 0.01
    }
    bias_filler {
      type: "constant"
      value: 1
    }
  }
}
layer {
  name: "bn2"
  type: "BatchNorm"
  bottom: "da_conv2"
  top: "bn2"
}
layer {
  name: "da_relu2"
  type: "ReLU"
  bottom: "bn2"
  top: "bn2"
  relu_param {
    negative_slope: 0.2
  }
}
layer {
  name: "da_conv3"
  type: "Convolution"
  bottom: "bn2"
  top: "da_conv3"
  param {
    lr_mult: 1
    decay_mult: 1
  }
  param {
    lr_mult: 2
    decay_mult: 0
  }
  convolution_param {
    num_output: 256
    pad: 1
    kernel_size: 3
    stride: 2
    weight_filler {
      type: "gaussian"
      std: 0.01
    }
    bias_filler {
      type: "constant"
      value: 0
    }
  }
}
layer {
  name: "bn3"
  type: "BatchNorm"
  bottom: "da_conv3"
  top: "bn3"
}
layer {
  name: "da_relu3"
  type: "ReLU"
  bottom: "bn3"
  top: "bn3"
  relu_param {
    negative_slope: 0.2
  }
}
layer {
  name: "da_conv4"
  type: "Convolution"
  bottom: "bn3"
  top: "da_conv4"
  param {
    lr_mult: 1
    decay_mult: 1
  }
  param {
    lr_mult: 2
    decay_mult: 0
  }
  convolution_param {
    num_output: 512
    pad: 1
    kernel_size: 3
    stride: 2
    weight_filler {
      type: "gaussian"
      std: 0.01
    }
    bias_filler {
      type: "constant"
      value: 1
    }
  }
}
layer {
  name: "bn4"
  type: "BatchNorm"
  bottom: "da_conv4"
  top: "bn4"
}
layer {
  name: "da_relu4"
  type: "ReLU"
  bottom: "bn4"
  top: "bn4"
  relu_param {
    negative_slope: 0.2
  }
}
layer {
  name: "da_conv5"
  type: "Convolution"
  bottom: "bn4"
  top: "da_conv5"
  param {
    lr_mult: 1
    decay_mult: 1
  }
  param {
    lr_mult: 2
    decay_mult: 0
  }
  convolution_param {
    num_output: 128
    pad: 1
    kernel_size: 3
    stride: 1
    weight_filler {
      type: "gaussian"
      std: 0.01
    }
    bias_filler {
      type: "constant"
      value: 1
    }
  }
}
layer {
  name: "bn5"
  type: "BatchNorm"
  bottom: "da_conv5"
  top: "bn5"
}
layer {
  name: "da_relu5"
  type: "ReLU"
  bottom: "bn5"
  top: "bn5"
  relu_param {
    negative_slope: 0.2
  }
}
layer {
  name: "pool5"
  type: "Pooling"
  bottom: "bn5"
  top: "pool5"
  pooling_param {
    pool: MAX
    kernel_size: 3
    stride: 2
  }
}
layer {
  name: "fc6"
  type: "InnerProduct"
  bottom: "pool5"
  top: "fc6"
  param {
    lr_mult: 1
    decay_mult: 1
  }
  param {
    lr_mult: 2
    decay_mult: 0
  }
  inner_product_param {
    num_output: 4096
    weight_filler {
      type: "gaussian"
      std: 0.005
    }
    bias_filler {
      type: "constant"
      value: 1
    }
  }
}
layer {
  name: "bn6_2"
  type: "BatchNorm"
  bottom: "fc6"
  top: "bn6_2"
}
layer {
  name: "da_relu6"
  type: "ReLU"
  bottom: "bn6_2"
  top: "bn6_2"
}
layer {
  name: "da_drop6"
  type: "Dropout"
  bottom: "bn6_2"
  top: "bn6_2"
  dropout_param {
    dropout_ratio: 0.5
  }
}
layer {
  name: "fc7"
  type: "InnerProduct"
  bottom: "bn6_2"
  top: "fc7"
  param {
    lr_mult: 1
    decay_mult: 1
  }
  param {
    lr_mult: 2
    decay_mult: 0
  }
  inner_product_param {
    num_output: 4096
    weight_filler {
      type: "gaussian"
      std: 0.005
    }
    bias_filler {
      type: "constant"
      value: 1
    }
  }
}
layer {
  name: "bn7"
  type: "BatchNorm"
  bottom: "fc7"
  top: "bn7"
}
layer {
  name: "da_relu7"
  type: "ReLU"
  bottom: "bn7"
  top: "bn7"
}
layer {
  name: "da_drop7"
  type: "Dropout"
  bottom: "bn7"
  top: "bn7"
  dropout_param {
    dropout_ratio: 0.5
  }
}
layer {
  name: "cls_score"
  type: "InnerProduct"
  bottom: "bn7"
  top: "cls_score"
  param {
    lr_mult: 1
    decay_mult: 1
  }
  param {
    lr_mult: 2
    decay_mult: 0
  }
  inner_product_param {
    num_output: 19
    weight_filler {
      type: "gaussian"
      std: 0.01
    }
    bias_filler {
      type: "constant"
      value: 0
    }
  }
}
layer {
  name: "loss_cls"
  type: "SoftmaxWithLoss"
  bottom: "cls_score"
  bottom: "label"
  top: "loss_cls"
}
I0301 21:47:53.039227  9663 layer_factory.hpp:77] Creating layer data
I0301 21:47:53.039249  9663 net.cpp:106] Creating Layer data
I0301 21:47:53.039255  9663 net.cpp:411] data -> data
I0301 21:47:53.039273  9663 net.cpp:411] data -> label
I0301 21:47:53.039870  9663 image_data_layer.cpp:38] Opening file /nfs/hn38/users/xiaolonw/sunrgbd/SUNRGBDtoolbox/trainlist2.txt
I0301 21:47:53.046538  9663 image_data_layer.cpp:51] Shuffling data
I0301 21:47:53.047688  9663 image_data_layer.cpp:56] A total of 4845 images.
I0301 21:47:53.088943  9663 image_data_layer.cpp:84] output data size: 100,6,128,128
I0301 21:47:53.156421  9663 net.cpp:150] Setting up data
I0301 21:47:53.156487  9663 net.cpp:157] Top shape: 100 6 128 128 (9830400)
I0301 21:47:53.156497  9663 net.cpp:157] Top shape: 100 (100)
I0301 21:47:53.156500  9663 net.cpp:165] Memory required for data: 39322000
I0301 21:47:53.156508  9663 layer_factory.hpp:77] Creating layer da_conv1
I0301 21:47:53.156528  9663 net.cpp:106] Creating Layer da_conv1
I0301 21:47:53.156534  9663 net.cpp:454] da_conv1 <- data
I0301 21:47:53.156543  9663 net.cpp:411] da_conv1 -> da_conv1
I0301 21:47:53.158524  9663 net.cpp:150] Setting up da_conv1
I0301 21:47:53.158540  9663 net.cpp:157] Top shape: 100 64 64 64 (26214400)
I0301 21:47:53.158542  9663 net.cpp:165] Memory required for data: 144179600
I0301 21:47:53.158556  9663 layer_factory.hpp:77] Creating layer bn1
I0301 21:47:53.158566  9663 net.cpp:106] Creating Layer bn1
I0301 21:47:53.158570  9663 net.cpp:454] bn1 <- da_conv1
I0301 21:47:53.158579  9663 net.cpp:411] bn1 -> bn1
I0301 21:47:53.158926  9663 net.cpp:150] Setting up bn1
I0301 21:47:53.158936  9663 net.cpp:157] Top shape: 100 64 64 64 (26214400)
I0301 21:47:53.158939  9663 net.cpp:165] Memory required for data: 249037200
I0301 21:47:53.158951  9663 layer_factory.hpp:77] Creating layer da_relu1
I0301 21:47:53.158959  9663 net.cpp:106] Creating Layer da_relu1
I0301 21:47:53.158965  9663 net.cpp:454] da_relu1 <- bn1
I0301 21:47:53.158970  9663 net.cpp:397] da_relu1 -> bn1 (in-place)
I0301 21:47:53.158983  9663 net.cpp:150] Setting up da_relu1
I0301 21:47:53.158989  9663 net.cpp:157] Top shape: 100 64 64 64 (26214400)
I0301 21:47:53.158993  9663 net.cpp:165] Memory required for data: 353894800
I0301 21:47:53.158995  9663 layer_factory.hpp:77] Creating layer da_conv2
I0301 21:47:53.159003  9663 net.cpp:106] Creating Layer da_conv2
I0301 21:47:53.159008  9663 net.cpp:454] da_conv2 <- bn1
I0301 21:47:53.159015  9663 net.cpp:411] da_conv2 -> da_conv2
I0301 21:47:53.163712  9663 net.cpp:150] Setting up da_conv2
I0301 21:47:53.163725  9663 net.cpp:157] Top shape: 100 128 32 32 (13107200)
I0301 21:47:53.163728  9663 net.cpp:165] Memory required for data: 406323600
I0301 21:47:53.163736  9663 layer_factory.hpp:77] Creating layer bn2
I0301 21:47:53.163743  9663 net.cpp:106] Creating Layer bn2
I0301 21:47:53.163745  9663 net.cpp:454] bn2 <- da_conv2
I0301 21:47:53.163750  9663 net.cpp:411] bn2 -> bn2
I0301 21:47:53.167898  9663 net.cpp:150] Setting up bn2
I0301 21:47:53.167914  9663 net.cpp:157] Top shape: 100 128 32 32 (13107200)
I0301 21:47:53.167918  9663 net.cpp:165] Memory required for data: 458752400
I0301 21:47:53.167932  9663 layer_factory.hpp:77] Creating layer da_relu2
I0301 21:47:53.167942  9663 net.cpp:106] Creating Layer da_relu2
I0301 21:47:53.167946  9663 net.cpp:454] da_relu2 <- bn2
I0301 21:47:53.167953  9663 net.cpp:397] da_relu2 -> bn2 (in-place)
I0301 21:47:53.167963  9663 net.cpp:150] Setting up da_relu2
I0301 21:47:53.167968  9663 net.cpp:157] Top shape: 100 128 32 32 (13107200)
I0301 21:47:53.167971  9663 net.cpp:165] Memory required for data: 511181200
I0301 21:47:53.167974  9663 layer_factory.hpp:77] Creating layer da_conv3
I0301 21:47:53.167984  9663 net.cpp:106] Creating Layer da_conv3
I0301 21:47:53.167987  9663 net.cpp:454] da_conv3 <- bn2
I0301 21:47:53.167994  9663 net.cpp:411] da_conv3 -> da_conv3
I0301 21:47:53.173598  9663 net.cpp:150] Setting up da_conv3
I0301 21:47:53.173611  9663 net.cpp:157] Top shape: 100 256 16 16 (6553600)
I0301 21:47:53.173615  9663 net.cpp:165] Memory required for data: 537395600
I0301 21:47:53.173622  9663 layer_factory.hpp:77] Creating layer bn3
I0301 21:47:53.173629  9663 net.cpp:106] Creating Layer bn3
I0301 21:47:53.173634  9663 net.cpp:454] bn3 <- da_conv3
I0301 21:47:53.173638  9663 net.cpp:411] bn3 -> bn3
I0301 21:47:53.173936  9663 net.cpp:150] Setting up bn3
I0301 21:47:53.173945  9663 net.cpp:157] Top shape: 100 256 16 16 (6553600)
I0301 21:47:53.173949  9663 net.cpp:165] Memory required for data: 563610000
I0301 21:47:53.173957  9663 layer_factory.hpp:77] Creating layer da_relu3
I0301 21:47:53.173964  9663 net.cpp:106] Creating Layer da_relu3
I0301 21:47:53.173969  9663 net.cpp:454] da_relu3 <- bn3
I0301 21:47:53.173976  9663 net.cpp:397] da_relu3 -> bn3 (in-place)
I0301 21:47:53.173984  9663 net.cpp:150] Setting up da_relu3
I0301 21:47:53.173988  9663 net.cpp:157] Top shape: 100 256 16 16 (6553600)
I0301 21:47:53.173992  9663 net.cpp:165] Memory required for data: 589824400
I0301 21:47:53.173995  9663 layer_factory.hpp:77] Creating layer da_conv4
I0301 21:47:53.174005  9663 net.cpp:106] Creating Layer da_conv4
I0301 21:47:53.174008  9663 net.cpp:454] da_conv4 <- bn3
I0301 21:47:53.174013  9663 net.cpp:411] da_conv4 -> da_conv4
I0301 21:47:53.194408  9663 net.cpp:150] Setting up da_conv4
I0301 21:47:53.194422  9663 net.cpp:157] Top shape: 100 512 8 8 (3276800)
I0301 21:47:53.194427  9663 net.cpp:165] Memory required for data: 602931600
I0301 21:47:53.194437  9663 layer_factory.hpp:77] Creating layer bn4
I0301 21:47:53.194445  9663 net.cpp:106] Creating Layer bn4
I0301 21:47:53.194448  9663 net.cpp:454] bn4 <- da_conv4
I0301 21:47:53.194454  9663 net.cpp:411] bn4 -> bn4
I0301 21:47:53.194777  9663 net.cpp:150] Setting up bn4
I0301 21:47:53.194785  9663 net.cpp:157] Top shape: 100 512 8 8 (3276800)
I0301 21:47:53.194788  9663 net.cpp:165] Memory required for data: 616038800
I0301 21:47:53.194797  9663 layer_factory.hpp:77] Creating layer da_relu4
I0301 21:47:53.194803  9663 net.cpp:106] Creating Layer da_relu4
I0301 21:47:53.194808  9663 net.cpp:454] da_relu4 <- bn4
I0301 21:47:53.194813  9663 net.cpp:397] da_relu4 -> bn4 (in-place)
I0301 21:47:53.194820  9663 net.cpp:150] Setting up da_relu4
I0301 21:47:53.194825  9663 net.cpp:157] Top shape: 100 512 8 8 (3276800)
I0301 21:47:53.194828  9663 net.cpp:165] Memory required for data: 629146000
I0301 21:47:53.194830  9663 layer_factory.hpp:77] Creating layer da_conv5
I0301 21:47:53.194840  9663 net.cpp:106] Creating Layer da_conv5
I0301 21:47:53.194844  9663 net.cpp:454] da_conv5 <- bn4
I0301 21:47:53.194850  9663 net.cpp:411] da_conv5 -> da_conv5
I0301 21:47:53.205303  9663 net.cpp:150] Setting up da_conv5
I0301 21:47:53.205317  9663 net.cpp:157] Top shape: 100 128 8 8 (819200)
I0301 21:47:53.205319  9663 net.cpp:165] Memory required for data: 632422800
I0301 21:47:53.205327  9663 layer_factory.hpp:77] Creating layer bn5
I0301 21:47:53.205334  9663 net.cpp:106] Creating Layer bn5
I0301 21:47:53.205338  9663 net.cpp:454] bn5 <- da_conv5
I0301 21:47:53.205343  9663 net.cpp:411] bn5 -> bn5
I0301 21:47:53.205665  9663 net.cpp:150] Setting up bn5
I0301 21:47:53.205673  9663 net.cpp:157] Top shape: 100 128 8 8 (819200)
I0301 21:47:53.205677  9663 net.cpp:165] Memory required for data: 635699600
I0301 21:47:53.205684  9663 layer_factory.hpp:77] Creating layer da_relu5
I0301 21:47:53.205690  9663 net.cpp:106] Creating Layer da_relu5
I0301 21:47:53.205693  9663 net.cpp:454] da_relu5 <- bn5
I0301 21:47:53.205699  9663 net.cpp:397] da_relu5 -> bn5 (in-place)
I0301 21:47:53.205708  9663 net.cpp:150] Setting up da_relu5
I0301 21:47:53.205711  9663 net.cpp:157] Top shape: 100 128 8 8 (819200)
I0301 21:47:53.205714  9663 net.cpp:165] Memory required for data: 638976400
I0301 21:47:53.205718  9663 layer_factory.hpp:77] Creating layer pool5
I0301 21:47:53.205725  9663 net.cpp:106] Creating Layer pool5
I0301 21:47:53.205729  9663 net.cpp:454] pool5 <- bn5
I0301 21:47:53.205734  9663 net.cpp:411] pool5 -> pool5
I0301 21:47:53.205796  9663 net.cpp:150] Setting up pool5
I0301 21:47:53.205802  9663 net.cpp:157] Top shape: 100 128 4 4 (204800)
I0301 21:47:53.205806  9663 net.cpp:165] Memory required for data: 639795600
I0301 21:47:53.205809  9663 layer_factory.hpp:77] Creating layer fc6
I0301 21:47:53.205821  9663 net.cpp:106] Creating Layer fc6
I0301 21:47:53.205826  9663 net.cpp:454] fc6 <- pool5
I0301 21:47:53.205832  9663 net.cpp:411] fc6 -> fc6
I0301 21:47:53.347692  9663 net.cpp:150] Setting up fc6
I0301 21:47:53.347712  9663 net.cpp:157] Top shape: 100 4096 (409600)
I0301 21:47:53.347717  9663 net.cpp:165] Memory required for data: 641434000
I0301 21:47:53.347726  9663 layer_factory.hpp:77] Creating layer bn6_2
I0301 21:47:53.347738  9663 net.cpp:106] Creating Layer bn6_2
I0301 21:47:53.347741  9663 net.cpp:454] bn6_2 <- fc6
I0301 21:47:53.347749  9663 net.cpp:411] bn6_2 -> bn6_2
I0301 21:47:53.348078  9663 net.cpp:150] Setting up bn6_2
I0301 21:47:53.348085  9663 net.cpp:157] Top shape: 100 4096 (409600)
I0301 21:47:53.348088  9663 net.cpp:165] Memory required for data: 643072400
I0301 21:47:53.348096  9663 layer_factory.hpp:77] Creating layer da_relu6
I0301 21:47:53.348103  9663 net.cpp:106] Creating Layer da_relu6
I0301 21:47:53.348106  9663 net.cpp:454] da_relu6 <- bn6_2
I0301 21:47:53.348114  9663 net.cpp:397] da_relu6 -> bn6_2 (in-place)
I0301 21:47:53.348121  9663 net.cpp:150] Setting up da_relu6
I0301 21:47:53.348127  9663 net.cpp:157] Top shape: 100 4096 (409600)
I0301 21:47:53.348130  9663 net.cpp:165] Memory required for data: 644710800
I0301 21:47:53.348134  9663 layer_factory.hpp:77] Creating layer da_drop6
I0301 21:47:53.348140  9663 net.cpp:106] Creating Layer da_drop6
I0301 21:47:53.348143  9663 net.cpp:454] da_drop6 <- bn6_2
I0301 21:47:53.348150  9663 net.cpp:397] da_drop6 -> bn6_2 (in-place)
I0301 21:47:53.348184  9663 net.cpp:150] Setting up da_drop6
I0301 21:47:53.348191  9663 net.cpp:157] Top shape: 100 4096 (409600)
I0301 21:47:53.348194  9663 net.cpp:165] Memory required for data: 646349200
I0301 21:47:53.348196  9663 layer_factory.hpp:77] Creating layer fc7
I0301 21:47:53.348204  9663 net.cpp:106] Creating Layer fc7
I0301 21:47:53.348208  9663 net.cpp:454] fc7 <- bn6_2
I0301 21:47:53.348214  9663 net.cpp:411] fc7 -> fc7
I0301 21:47:53.631420  9663 net.cpp:150] Setting up fc7
I0301 21:47:53.631441  9663 net.cpp:157] Top shape: 100 4096 (409600)
I0301 21:47:53.631445  9663 net.cpp:165] Memory required for data: 647987600
I0301 21:47:53.631455  9663 layer_factory.hpp:77] Creating layer bn7
I0301 21:47:53.631467  9663 net.cpp:106] Creating Layer bn7
I0301 21:47:53.631472  9663 net.cpp:454] bn7 <- fc7
I0301 21:47:53.631480  9663 net.cpp:411] bn7 -> bn7
I0301 21:47:53.631832  9663 net.cpp:150] Setting up bn7
I0301 21:47:53.631841  9663 net.cpp:157] Top shape: 100 4096 (409600)
I0301 21:47:53.631844  9663 net.cpp:165] Memory required for data: 649626000
I0301 21:47:53.631861  9663 layer_factory.hpp:77] Creating layer da_relu7
I0301 21:47:53.631868  9663 net.cpp:106] Creating Layer da_relu7
I0301 21:47:53.631872  9663 net.cpp:454] da_relu7 <- bn7
I0301 21:47:53.631877  9663 net.cpp:397] da_relu7 -> bn7 (in-place)
I0301 21:47:53.631885  9663 net.cpp:150] Setting up da_relu7
I0301 21:47:53.631889  9663 net.cpp:157] Top shape: 100 4096 (409600)
I0301 21:47:53.631892  9663 net.cpp:165] Memory required for data: 651264400
I0301 21:47:53.631896  9663 layer_factory.hpp:77] Creating layer da_drop7
I0301 21:47:53.631901  9663 net.cpp:106] Creating Layer da_drop7
I0301 21:47:53.631906  9663 net.cpp:454] da_drop7 <- bn7
I0301 21:47:53.631911  9663 net.cpp:397] da_drop7 -> bn7 (in-place)
I0301 21:47:53.631947  9663 net.cpp:150] Setting up da_drop7
I0301 21:47:53.631953  9663 net.cpp:157] Top shape: 100 4096 (409600)
I0301 21:47:53.631956  9663 net.cpp:165] Memory required for data: 652902800
I0301 21:47:53.631959  9663 layer_factory.hpp:77] Creating layer cls_score
I0301 21:47:53.631969  9663 net.cpp:106] Creating Layer cls_score
I0301 21:47:53.631973  9663 net.cpp:454] cls_score <- bn7
I0301 21:47:53.631978  9663 net.cpp:411] cls_score -> cls_score
I0301 21:47:53.634034  9663 net.cpp:150] Setting up cls_score
I0301 21:47:53.634047  9663 net.cpp:157] Top shape: 100 19 (1900)
I0301 21:47:53.634050  9663 net.cpp:165] Memory required for data: 652910400
I0301 21:47:53.634057  9663 layer_factory.hpp:77] Creating layer loss_cls
I0301 21:47:53.634065  9663 net.cpp:106] Creating Layer loss_cls
I0301 21:47:53.634069  9663 net.cpp:454] loss_cls <- cls_score
I0301 21:47:53.634073  9663 net.cpp:454] loss_cls <- label
I0301 21:47:53.634078  9663 net.cpp:411] loss_cls -> loss_cls
…
