…
I0302 00:55:56.281430 21651 solver.cpp:91] Creating training net from net file: train.prototxt
I0302 00:55:56.283229 21651 net.cpp:49] Initializing net from parameters: 
name: "sungrbd"
state {
  phase: TRAIN
}
layer {
  name: "data"
  type: "ImageData"
  top: "data"
  top: "label"
  include {
    phase: TRAIN
  }
  transform_param {
    mirror: false
    crop_size: 128
    mean_value: 1
  }
  image_data_param {
    source: "/nfs/hn38/users/xiaolonw/sunrgbd/SUNRGBDtoolbox/trainlist2.txt"
    batch_size: 100
    shuffle: true
    new_height: 128
    new_width: 128
    root_folder: "/scratch/xiaolonw/sunrgbd/data/"
  }
}
layer {
  name: "da_conv1"
  type: "Convolution"
  bottom: "data"
  top: "da_conv1"
  param {
    lr_mult: 1
    decay_mult: 1
  }
  param {
    lr_mult: 2
    decay_mult: 0
  }
  convolution_param {
    num_output: 64
    pad: 2
    kernel_size: 5
    stride: 2
    weight_filler {
      type: "gaussian"
      std: 0.01
    }
    bias_filler {
      type: "constant"
      value: 0
    }
  }
}
layer {
  name: "da_relu1"
  type: "ReLU"
  bottom: "da_conv1"
  top: "da_conv1"
  relu_param {
    negative_slope: 0.2
  }
}
layer {
  name: "da_conv2"
  type: "Convolution"
  bottom: "da_conv1"
  top: "da_conv2"
  param {
    lr_mult: 1
    decay_mult: 1
  }
  param {
    lr_mult: 2
    decay_mult: 0
  }
  convolution_param {
    num_output: 128
    pad: 2
    kernel_size: 5
    stride: 2
    weight_filler {
      type: "gaussian"
      std: 0.01
    }
    bias_filler {
      type: "constant"
      value: 1
    }
  }
}
layer {
  name: "da_relu2"
  type: "ReLU"
  bottom: "da_conv2"
  top: "da_conv2"
  relu_param {
    negative_slope: 0.2
  }
}
layer {
  name: "da_conv3"
  type: "Convolution"
  bottom: "da_conv2"
  top: "da_conv3"
  param {
    lr_mult: 1
    decay_mult: 1
  }
  param {
    lr_mult: 2
    decay_mult: 0
  }
  convolution_param {
    num_output: 256
    pad: 1
    kernel_size: 3
    stride: 2
    weight_filler {
      type: "gaussian"
      std: 0.01
    }
    bias_filler {
      type: "constant"
      value: 0
    }
  }
}
layer {
  name: "da_relu3"
  type: "ReLU"
  bottom: "da_conv3"
  top: "da_conv3"
  relu_param {
    negative_slope: 0.2
  }
}
layer {
  name: "da_conv4"
  type: "Convolution"
  bottom: "da_conv3"
  top: "da_conv4"
  param {
    lr_mult: 1
    decay_mult: 1
  }
  param {
    lr_mult: 2
    decay_mult: 0
  }
  convolution_param {
    num_output: 512
    pad: 1
    kernel_size: 3
    stride: 2
    weight_filler {
      type: "gaussian"
      std: 0.01
    }
    bias_filler {
      type: "constant"
      value: 1
    }
  }
}
layer {
  name: "da_relu4"
  type: "ReLU"
  bottom: "da_conv4"
  top: "da_conv4"
  relu_param {
    negative_slope: 0.2
  }
}
layer {
  name: "da_conv5"
  type: "Convolution"
  bottom: "da_conv4"
  top: "da_conv5"
  param {
    lr_mult: 1
    decay_mult: 1
  }
  param {
    lr_mult: 2
    decay_mult: 0
  }
  convolution_param {
    num_output: 128
    pad: 1
    kernel_size: 3
    stride: 1
    weight_filler {
      type: "gaussian"
      std: 0.01
    }
    bias_filler {
      type: "constant"
      value: 1
    }
  }
}
layer {
  name: "da_relu5"
  type: "ReLU"
  bottom: "da_conv5"
  top: "da_conv5"
  relu_param {
    negative_slope: 0.2
  }
}
layer {
  name: "pool5"
  type: "Pooling"
  bottom: "da_conv5"
  top: "pool5"
  pooling_param {
    pool: MAX
    kernel_size: 3
    stride: 2
  }
}
layer {
  name: "cls_score"
  type: "InnerProduct"
  bottom: "pool5"
  top: "cls_score"
  param {
    lr_mult: 1
    decay_mult: 1
  }
  param {
    lr_mult: 2
    decay_mult: 0
  }
  inner_product_param {
    num_output: 19
    weight_filler {
      type: "gaussian"
      std: 0.01
    }
    bias_filler {
      type: "constant"
      value: 0
    }
  }
}
layer {
  name: "loss_cls"
  type: "SoftmaxWithLoss"
  bottom: "cls_score"
  bottom: "label"
  top: "loss_cls"
}
I0302 00:55:56.283321 21651 layer_factory.hpp:77] Creating layer data
I0302 00:55:56.283344 21651 net.cpp:106] Creating Layer data
I0302 00:55:56.283350 21651 net.cpp:411] data -> data
I0302 00:55:56.283368 21651 net.cpp:411] data -> label
I0302 00:55:56.283978 21651 image_data_layer.cpp:38] Opening file /nfs/hn38/users/xiaolonw/sunrgbd/SUNRGBDtoolbox/trainlist2.txt
I0302 00:55:56.293395 21651 image_data_layer.cpp:51] Shuffling data
I0302 00:55:56.294528 21651 image_data_layer.cpp:56] A total of 4845 images.
I0302 00:55:56.344610 21651 image_data_layer.cpp:84] output data size: 100,6,128,128
I0302 00:55:56.443636 21651 net.cpp:150] Setting up data
I0302 00:55:56.443665 21651 net.cpp:157] Top shape: 100 6 128 128 (9830400)
I0302 00:55:56.443671 21651 net.cpp:157] Top shape: 100 (100)
I0302 00:55:56.443675 21651 net.cpp:165] Memory required for data: 39322000
I0302 00:55:56.443681 21651 layer_factory.hpp:77] Creating layer da_conv1
I0302 00:55:56.443698 21651 net.cpp:106] Creating Layer da_conv1
I0302 00:55:56.443703 21651 net.cpp:454] da_conv1 <- data
I0302 00:55:56.443712 21651 net.cpp:411] da_conv1 -> da_conv1
I0302 00:55:56.445113 21651 net.cpp:150] Setting up da_conv1
I0302 00:55:56.445127 21651 net.cpp:157] Top shape: 100 64 64 64 (26214400)
I0302 00:55:56.445132 21651 net.cpp:165] Memory required for data: 144179600
I0302 00:55:56.445147 21651 layer_factory.hpp:77] Creating layer da_relu1
I0302 00:55:56.445154 21651 net.cpp:106] Creating Layer da_relu1
I0302 00:55:56.445160 21651 net.cpp:454] da_relu1 <- da_conv1
I0302 00:55:56.445166 21651 net.cpp:397] da_relu1 -> da_conv1 (in-place)
I0302 00:55:56.445179 21651 net.cpp:150] Setting up da_relu1
I0302 00:55:56.445186 21651 net.cpp:157] Top shape: 100 64 64 64 (26214400)
I0302 00:55:56.445190 21651 net.cpp:165] Memory required for data: 249037200
I0302 00:55:56.445194 21651 layer_factory.hpp:77] Creating layer da_conv2
I0302 00:55:56.445202 21651 net.cpp:106] Creating Layer da_conv2
I0302 00:55:56.445207 21651 net.cpp:454] da_conv2 <- da_conv1
I0302 00:55:56.445219 21651 net.cpp:411] da_conv2 -> da_conv2
I0302 00:55:56.449538 21651 net.cpp:150] Setting up da_conv2
I0302 00:55:56.449551 21651 net.cpp:157] Top shape: 100 128 32 32 (13107200)
I0302 00:55:56.449555 21651 net.cpp:165] Memory required for data: 301466000
I0302 00:55:56.449565 21651 layer_factory.hpp:77] Creating layer da_relu2
I0302 00:55:56.449578 21651 net.cpp:106] Creating Layer da_relu2
I0302 00:55:56.449581 21651 net.cpp:454] da_relu2 <- da_conv2
I0302 00:55:56.449587 21651 net.cpp:397] da_relu2 -> da_conv2 (in-place)
I0302 00:55:56.449597 21651 net.cpp:150] Setting up da_relu2
I0302 00:55:56.449604 21651 net.cpp:157] Top shape: 100 128 32 32 (13107200)
I0302 00:55:56.449606 21651 net.cpp:165] Memory required for data: 353894800
I0302 00:55:56.449609 21651 layer_factory.hpp:77] Creating layer da_conv3
I0302 00:55:56.449616 21651 net.cpp:106] Creating Layer da_conv3
I0302 00:55:56.449620 21651 net.cpp:454] da_conv3 <- da_conv2
I0302 00:55:56.449626 21651 net.cpp:411] da_conv3 -> da_conv3
I0302 00:55:56.457640 21651 net.cpp:150] Setting up da_conv3
I0302 00:55:56.457658 21651 net.cpp:157] Top shape: 100 256 16 16 (6553600)
I0302 00:55:56.457660 21651 net.cpp:165] Memory required for data: 380109200
I0302 00:55:56.457671 21651 layer_factory.hpp:77] Creating layer da_relu3
I0302 00:55:56.457679 21651 net.cpp:106] Creating Layer da_relu3
I0302 00:55:56.457682 21651 net.cpp:454] da_relu3 <- da_conv3
I0302 00:55:56.457687 21651 net.cpp:397] da_relu3 -> da_conv3 (in-place)
I0302 00:55:56.457697 21651 net.cpp:150] Setting up da_relu3
I0302 00:55:56.457703 21651 net.cpp:157] Top shape: 100 256 16 16 (6553600)
I0302 00:55:56.457707 21651 net.cpp:165] Memory required for data: 406323600
I0302 00:55:56.457710 21651 layer_factory.hpp:77] Creating layer da_conv4
I0302 00:55:56.457720 21651 net.cpp:106] Creating Layer da_conv4
I0302 00:55:56.457725 21651 net.cpp:454] da_conv4 <- da_conv3
I0302 00:55:56.457731 21651 net.cpp:411] da_conv4 -> da_conv4
I0302 00:55:56.477941 21651 net.cpp:150] Setting up da_conv4
I0302 00:55:56.477957 21651 net.cpp:157] Top shape: 100 512 8 8 (3276800)
I0302 00:55:56.477960 21651 net.cpp:165] Memory required for data: 419430800
I0302 00:55:56.477967 21651 layer_factory.hpp:77] Creating layer da_relu4
I0302 00:55:56.477975 21651 net.cpp:106] Creating Layer da_relu4
I0302 00:55:56.477979 21651 net.cpp:454] da_relu4 <- da_conv4
I0302 00:55:56.477984 21651 net.cpp:397] da_relu4 -> da_conv4 (in-place)
I0302 00:55:56.477994 21651 net.cpp:150] Setting up da_relu4
I0302 00:55:56.478000 21651 net.cpp:157] Top shape: 100 512 8 8 (3276800)
I0302 00:55:56.478003 21651 net.cpp:165] Memory required for data: 432538000
I0302 00:55:56.478006 21651 layer_factory.hpp:77] Creating layer da_conv5
I0302 00:55:56.478016 21651 net.cpp:106] Creating Layer da_conv5
I0302 00:55:56.478020 21651 net.cpp:454] da_conv5 <- da_conv4
I0302 00:55:56.478026 21651 net.cpp:411] da_conv5 -> da_conv5
I0302 00:55:56.488304 21651 net.cpp:150] Setting up da_conv5
I0302 00:55:56.488317 21651 net.cpp:157] Top shape: 100 128 8 8 (819200)
I0302 00:55:56.488322 21651 net.cpp:165] Memory required for data: 435814800
I0302 00:55:56.488332 21651 layer_factory.hpp:77] Creating layer da_relu5
I0302 00:55:56.488339 21651 net.cpp:106] Creating Layer da_relu5
I0302 00:55:56.488343 21651 net.cpp:454] da_relu5 <- da_conv5
I0302 00:55:56.488348 21651 net.cpp:397] da_relu5 -> da_conv5 (in-place)
I0302 00:55:56.488356 21651 net.cpp:150] Setting up da_relu5
I0302 00:55:56.488363 21651 net.cpp:157] Top shape: 100 128 8 8 (819200)
I0302 00:55:56.488366 21651 net.cpp:165] Memory required for data: 439091600
I0302 00:55:56.488369 21651 layer_factory.hpp:77] Creating layer pool5
I0302 00:55:56.488379 21651 net.cpp:106] Creating Layer pool5
I0302 00:55:56.488384 21651 net.cpp:454] pool5 <- da_conv5
I0302 00:55:56.488387 21651 net.cpp:411] pool5 -> pool5
I0302 00:55:56.488431 21651 net.cpp:150] Setting up pool5
I0302 00:55:56.488440 21651 net.cpp:157] Top shape: 100 128 4 4 (204800)
I0302 00:55:56.488442 21651 net.cpp:165] Memory required for data: 439910800
I0302 00:55:56.488445 21651 layer_factory.hpp:77] Creating layer cls_score
I0302 00:55:56.488456 21651 net.cpp:106] Creating Layer cls_score
I0302 00:55:56.488461 21651 net.cpp:454] cls_score <- pool5
I0302 00:55:56.488466 21651 net.cpp:411] cls_score -> cls_score
I0302 00:55:56.489876 21651 net.cpp:150] Setting up cls_score
I0302 00:55:56.489888 21651 net.cpp:157] Top shape: 100 19 (1900)
I0302 00:55:56.489892 21651 net.cpp:165] Memory required for data: 439918400
I0302 00:55:56.489898 21651 layer_factory.hpp:77] Creating layer loss_cls
I0302 00:55:56.489905 21651 net.cpp:106] Creating Layer loss_cls
I0302 00:55:56.489909 21651 net.cpp:454] loss_cls <- cls_score
I0302 00:55:56.489913 21651 net.cpp:454] loss_cls <- label
I0302 00:55:56.489920 21651 net.cpp:411] loss_cls -> loss_cls
…
