…
I0301 21:07:11.247045 32608 solver.cpp:91] Creating training net from net file: train.prototxt
I0301 21:07:11.249094 32608 net.cpp:49] Initializing net from parameters: 
name: "sungrbd"
state {
  phase: TRAIN
}
layer {
  name: "data"
  type: "ImageData"
  top: "data"
  top: "label"
  include {
    phase: TRAIN
  }
  transform_param {
    mirror: false
    crop_size: 128
    mean_value: 1
  }
  image_data_param {
    source: "/nfs/hn38/users/xiaolonw/sunrgbd/SUNRGBDtoolbox/trainlist2.txt"
    batch_size: 100
    shuffle: true
    new_height: 128
    new_width: 128
    root_folder: "/scratch/xiaolonw/sunrgbd/data/"
  }
}
layer {
  name: "da_conv1"
  type: "Convolution"
  bottom: "data"
  top: "da_conv1"
  param {
    lr_mult: 1
    decay_mult: 1
  }
  param {
    lr_mult: 2
    decay_mult: 0
  }
  convolution_param {
    num_output: 64
    pad: 2
    kernel_size: 5
    stride: 2
    weight_filler {
      type: "gaussian"
      std: 0.01
    }
    bias_filler {
      type: "constant"
      value: 0
    }
  }
}
layer {
  name: "bn1"
  type: "BatchNorm"
  bottom: "da_conv1"
  top: "bn1"
}
layer {
  name: "da_relu1"
  type: "ReLU"
  bottom: "bn1"
  top: "bn1"
  relu_param {
    negative_slope: 0.2
  }
}
layer {
  name: "da_conv2"
  type: "Convolution"
  bottom: "bn1"
  top: "da_conv2"
  param {
    lr_mult: 1
    decay_mult: 1
  }
  param {
    lr_mult: 2
    decay_mult: 0
  }
  convolution_param {
    num_output: 128
    pad: 2
    kernel_size: 5
    stride: 2
    weight_filler {
      type: "gaussian"
      std: 0.01
    }
    bias_filler {
      type: "constant"
      value: 1
    }
  }
}
layer {
  name: "bn2"
  type: "BatchNorm"
  bottom: "da_conv2"
  top: "bn2"
}
layer {
  name: "da_relu2"
  type: "ReLU"
  bottom: "bn2"
  top: "bn2"
  relu_param {
    negative_slope: 0.2
  }
}
layer {
  name: "da_conv3"
  type: "Convolution"
  bottom: "bn2"
  top: "da_conv3"
  param {
    lr_mult: 1
    decay_mult: 1
  }
  param {
    lr_mult: 2
    decay_mult: 0
  }
  convolution_param {
    num_output: 256
    pad: 1
    kernel_size: 3
    stride: 2
    weight_filler {
      type: "gaussian"
      std: 0.01
    }
    bias_filler {
      type: "constant"
      value: 0
    }
  }
}
layer {
  name: "bn3"
  type: "BatchNorm"
  bottom: "da_conv3"
  top: "bn3"
}
layer {
  name: "da_relu3"
  type: "ReLU"
  bottom: "bn3"
  top: "bn3"
  relu_param {
    negative_slope: 0.2
  }
}
layer {
  name: "da_conv4"
  type: "Convolution"
  bottom: "bn3"
  top: "da_conv4"
  param {
    lr_mult: 1
    decay_mult: 1
  }
  param {
    lr_mult: 2
    decay_mult: 0
  }
  convolution_param {
    num_output: 512
    pad: 1
    kernel_size: 3
    stride: 2
    weight_filler {
      type: "gaussian"
      std: 0.01
    }
    bias_filler {
      type: "constant"
      value: 1
    }
  }
}
layer {
  name: "bn4"
  type: "BatchNorm"
  bottom: "da_conv4"
  top: "bn4"
}
layer {
  name: "da_relu4"
  type: "ReLU"
  bottom: "bn4"
  top: "bn4"
  relu_param {
    negative_slope: 0.2
  }
}
layer {
  name: "da_conv5"
  type: "Convolution"
  bottom: "bn4"
  top: "da_conv5"
  param {
    lr_mult: 1
    decay_mult: 1
  }
  param {
    lr_mult: 2
    decay_mult: 0
  }
  convolution_param {
    num_output: 128
    pad: 1
    kernel_size: 3
    stride: 1
    weight_filler {
      type: "gaussian"
      std: 0.01
    }
    bias_filler {
      type: "constant"
      value: 1
    }
  }
}
layer {
  name: "bn5"
  type: "BatchNorm"
  bottom: "da_conv5"
  top: "bn5"
}
layer {
  name: "da_relu5"
  type: "ReLU"
  bottom: "bn5"
  top: "bn5"
  relu_param {
    negative_slope: 0.2
  }
}
layer {
  name: "pool5"
  type: "Pooling"
  bottom: "bn5"
  top: "pool5"
  pooling_param {
    pool: MAX
    kernel_size: 3
    stride: 2
  }
}
layer {
  name: "da_fc6"
  type: "InnerProduct"
  bottom: "pool5"
  top: "da_fc6"
  param {
    lr_mult: 1
    decay_mult: 1
  }
  param {
    lr_mult: 2
    decay_mult: 0
  }
  inner_product_param {
    num_output: 4096
    weight_filler {
      type: "gaussian"
      std: 0.005
    }
    bias_filler {
      type: "constant"
      value: 1
    }
  }
}
layer {
  name: "bn6_2"
  type: "BatchNorm"
  bottom: "da_fc6"
  top: "bn6_2"
}
layer {
  name: "da_relu6"
  type: "ReLU"
  bottom: "bn6_2"
  top: "bn6_2"
}
layer {
  name: "da_drop6"
  type: "Dropout"
  bottom: "bn6_2"
  top: "bn6_2"
  dropout_param {
    dropout_ratio: 0.5
  }
}
layer {
  name: "da_fc7"
  type: "InnerProduct"
  bottom: "bn6_2"
  top: "da_fc7"
  param {
    lr_mult: 1
    decay_mult: 1
  }
  param {
    lr_mult: 2
    decay_mult: 0
  }
  inner_product_param {
    num_output: 4096
    weight_filler {
      type: "gaussian"
      std: 0.005
    }
    bias_filler {
      type: "constant"
      value: 1
    }
  }
}
layer {
  name: "bn7"
  type: "BatchNorm"
  bottom: "da_fc7"
  top: "bn7"
}
layer {
  name: "da_relu7"
  type: "ReLU"
  bottom: "bn7"
  top: "bn7"
}
layer {
  name: "da_drop7"
  type: "Dropout"
  bottom: "bn7"
  top: "bn7"
  dropout_param {
    dropout_ratio: 0.5
  }
}
layer {
  name: "da_cls_score"
  type: "InnerProduct"
  bottom: "bn7"
  top: "cls_score_1"
  param {
    lr_mult: 1
    decay_mult: 1
  }
  param {
    lr_mult: 2
    decay_mult: 0
  }
  inner_product_param {
    num_output: 19
    weight_filler {
      type: "gaussian"
      std: 0.01
    }
    bias_filler {
      type: "constant"
      value: 0
    }
  }
}
layer {
  name: "da_loss_cls"
  type: "SoftmaxWithLoss"
  bottom: "cls_score_1"
  bottom: "label"
  top: "da_loss_cls"
}
I0301 21:07:11.249220 32608 layer_factory.hpp:77] Creating layer data
I0301 21:07:11.249243 32608 net.cpp:106] Creating Layer data
I0301 21:07:11.249250 32608 net.cpp:411] data -> data
I0301 21:07:11.249269 32608 net.cpp:411] data -> label
I0301 21:07:11.249878 32608 image_data_layer.cpp:38] Opening file /nfs/hn38/users/xiaolonw/sunrgbd/SUNRGBDtoolbox/trainlist2.txt
I0301 21:07:11.260273 32608 image_data_layer.cpp:51] Shuffling data
I0301 21:07:11.261425 32608 image_data_layer.cpp:56] A total of 4845 images.
I0301 21:07:11.277695 32608 image_data_layer.cpp:84] output data size: 100,6,128,128
I0301 21:07:11.343502 32608 net.cpp:150] Setting up data
I0301 21:07:11.343531 32608 net.cpp:157] Top shape: 100 6 128 128 (9830400)
I0301 21:07:11.343538 32608 net.cpp:157] Top shape: 100 (100)
I0301 21:07:11.343540 32608 net.cpp:165] Memory required for data: 39322000
I0301 21:07:11.343547 32608 layer_factory.hpp:77] Creating layer da_conv1
I0301 21:07:11.343565 32608 net.cpp:106] Creating Layer da_conv1
I0301 21:07:11.343571 32608 net.cpp:454] da_conv1 <- data
I0301 21:07:11.343580 32608 net.cpp:411] da_conv1 -> da_conv1
I0301 21:07:11.345264 32608 net.cpp:150] Setting up da_conv1
I0301 21:07:11.345278 32608 net.cpp:157] Top shape: 100 64 64 64 (26214400)
I0301 21:07:11.345283 32608 net.cpp:165] Memory required for data: 144179600
I0301 21:07:11.345296 32608 layer_factory.hpp:77] Creating layer bn1
I0301 21:07:11.345305 32608 net.cpp:106] Creating Layer bn1
I0301 21:07:11.345309 32608 net.cpp:454] bn1 <- da_conv1
I0301 21:07:11.345317 32608 net.cpp:411] bn1 -> bn1
I0301 21:07:11.345734 32608 net.cpp:150] Setting up bn1
I0301 21:07:11.345744 32608 net.cpp:157] Top shape: 100 64 64 64 (26214400)
I0301 21:07:11.345747 32608 net.cpp:165] Memory required for data: 249037200
I0301 21:07:11.345762 32608 layer_factory.hpp:77] Creating layer da_relu1
I0301 21:07:11.345770 32608 net.cpp:106] Creating Layer da_relu1
I0301 21:07:11.345773 32608 net.cpp:454] da_relu1 <- bn1
I0301 21:07:11.345779 32608 net.cpp:397] da_relu1 -> bn1 (in-place)
I0301 21:07:11.345793 32608 net.cpp:150] Setting up da_relu1
I0301 21:07:11.345799 32608 net.cpp:157] Top shape: 100 64 64 64 (26214400)
I0301 21:07:11.345803 32608 net.cpp:165] Memory required for data: 353894800
I0301 21:07:11.345805 32608 layer_factory.hpp:77] Creating layer da_conv2
I0301 21:07:11.345818 32608 net.cpp:106] Creating Layer da_conv2
I0301 21:07:11.345823 32608 net.cpp:454] da_conv2 <- bn1
I0301 21:07:11.345827 32608 net.cpp:411] da_conv2 -> da_conv2
I0301 21:07:11.350458 32608 net.cpp:150] Setting up da_conv2
I0301 21:07:11.350472 32608 net.cpp:157] Top shape: 100 128 32 32 (13107200)
I0301 21:07:11.350476 32608 net.cpp:165] Memory required for data: 406323600
I0301 21:07:11.350483 32608 layer_factory.hpp:77] Creating layer bn2
I0301 21:07:11.350491 32608 net.cpp:106] Creating Layer bn2
I0301 21:07:11.350494 32608 net.cpp:454] bn2 <- da_conv2
I0301 21:07:11.350499 32608 net.cpp:411] bn2 -> bn2
I0301 21:07:11.350823 32608 net.cpp:150] Setting up bn2
I0301 21:07:11.350831 32608 net.cpp:157] Top shape: 100 128 32 32 (13107200)
I0301 21:07:11.350834 32608 net.cpp:165] Memory required for data: 458752400
I0301 21:07:11.350848 32608 layer_factory.hpp:77] Creating layer da_relu2
I0301 21:07:11.350854 32608 net.cpp:106] Creating Layer da_relu2
I0301 21:07:11.350857 32608 net.cpp:454] da_relu2 <- bn2
I0301 21:07:11.350863 32608 net.cpp:397] da_relu2 -> bn2 (in-place)
I0301 21:07:11.350872 32608 net.cpp:150] Setting up da_relu2
I0301 21:07:11.350877 32608 net.cpp:157] Top shape: 100 128 32 32 (13107200)
I0301 21:07:11.350880 32608 net.cpp:165] Memory required for data: 511181200
I0301 21:07:11.350883 32608 layer_factory.hpp:77] Creating layer da_conv3
I0301 21:07:11.350889 32608 net.cpp:106] Creating Layer da_conv3
I0301 21:07:11.350893 32608 net.cpp:454] da_conv3 <- bn2
I0301 21:07:11.350900 32608 net.cpp:411] da_conv3 -> da_conv3
I0301 21:07:11.358526 32608 net.cpp:150] Setting up da_conv3
I0301 21:07:11.358542 32608 net.cpp:157] Top shape: 100 256 16 16 (6553600)
I0301 21:07:11.358546 32608 net.cpp:165] Memory required for data: 537395600
I0301 21:07:11.358552 32608 layer_factory.hpp:77] Creating layer bn3
I0301 21:07:11.358563 32608 net.cpp:106] Creating Layer bn3
I0301 21:07:11.358567 32608 net.cpp:454] bn3 <- da_conv3
I0301 21:07:11.358573 32608 net.cpp:411] bn3 -> bn3
I0301 21:07:11.358880 32608 net.cpp:150] Setting up bn3
I0301 21:07:11.358888 32608 net.cpp:157] Top shape: 100 256 16 16 (6553600)
I0301 21:07:11.358891 32608 net.cpp:165] Memory required for data: 563610000
I0301 21:07:11.358901 32608 layer_factory.hpp:77] Creating layer da_relu3
I0301 21:07:11.358907 32608 net.cpp:106] Creating Layer da_relu3
I0301 21:07:11.358911 32608 net.cpp:454] da_relu3 <- bn3
I0301 21:07:11.358918 32608 net.cpp:397] da_relu3 -> bn3 (in-place)
I0301 21:07:11.358927 32608 net.cpp:150] Setting up da_relu3
I0301 21:07:11.358932 32608 net.cpp:157] Top shape: 100 256 16 16 (6553600)
I0301 21:07:11.358935 32608 net.cpp:165] Memory required for data: 589824400
I0301 21:07:11.358938 32608 layer_factory.hpp:77] Creating layer da_conv4
I0301 21:07:11.358945 32608 net.cpp:106] Creating Layer da_conv4
I0301 21:07:11.358949 32608 net.cpp:454] da_conv4 <- bn3
I0301 21:07:11.358957 32608 net.cpp:411] da_conv4 -> da_conv4
I0301 21:07:11.379335 32608 net.cpp:150] Setting up da_conv4
I0301 21:07:11.379350 32608 net.cpp:157] Top shape: 100 512 8 8 (3276800)
I0301 21:07:11.379354 32608 net.cpp:165] Memory required for data: 602931600
I0301 21:07:11.379367 32608 layer_factory.hpp:77] Creating layer bn4
I0301 21:07:11.379379 32608 net.cpp:106] Creating Layer bn4
I0301 21:07:11.379384 32608 net.cpp:454] bn4 <- da_conv4
I0301 21:07:11.379391 32608 net.cpp:411] bn4 -> bn4
I0301 21:07:11.379715 32608 net.cpp:150] Setting up bn4
I0301 21:07:11.379724 32608 net.cpp:157] Top shape: 100 512 8 8 (3276800)
I0301 21:07:11.379729 32608 net.cpp:165] Memory required for data: 616038800
I0301 21:07:11.379735 32608 layer_factory.hpp:77] Creating layer da_relu4
I0301 21:07:11.379744 32608 net.cpp:106] Creating Layer da_relu4
I0301 21:07:11.379746 32608 net.cpp:454] da_relu4 <- bn4
I0301 21:07:11.379752 32608 net.cpp:397] da_relu4 -> bn4 (in-place)
I0301 21:07:11.379760 32608 net.cpp:150] Setting up da_relu4
I0301 21:07:11.379763 32608 net.cpp:157] Top shape: 100 512 8 8 (3276800)
I0301 21:07:11.379766 32608 net.cpp:165] Memory required for data: 629146000
I0301 21:07:11.379768 32608 layer_factory.hpp:77] Creating layer da_conv5
I0301 21:07:11.379776 32608 net.cpp:106] Creating Layer da_conv5
I0301 21:07:11.379778 32608 net.cpp:454] da_conv5 <- bn4
I0301 21:07:11.379784 32608 net.cpp:411] da_conv5 -> da_conv5
I0301 21:07:11.390264 32608 net.cpp:150] Setting up da_conv5
I0301 21:07:11.390282 32608 net.cpp:157] Top shape: 100 128 8 8 (819200)
I0301 21:07:11.390285 32608 net.cpp:165] Memory required for data: 632422800
I0301 21:07:11.390292 32608 layer_factory.hpp:77] Creating layer bn5
I0301 21:07:11.390300 32608 net.cpp:106] Creating Layer bn5
I0301 21:07:11.390305 32608 net.cpp:454] bn5 <- da_conv5
I0301 21:07:11.390313 32608 net.cpp:411] bn5 -> bn5
I0301 21:07:11.390642 32608 net.cpp:150] Setting up bn5
I0301 21:07:11.390650 32608 net.cpp:157] Top shape: 100 128 8 8 (819200)
I0301 21:07:11.390655 32608 net.cpp:165] Memory required for data: 635699600
I0301 21:07:11.390664 32608 layer_factory.hpp:77] Creating layer da_relu5
I0301 21:07:11.390672 32608 net.cpp:106] Creating Layer da_relu5
I0301 21:07:11.390677 32608 net.cpp:454] da_relu5 <- bn5
I0301 21:07:11.390681 32608 net.cpp:397] da_relu5 -> bn5 (in-place)
I0301 21:07:11.390689 32608 net.cpp:150] Setting up da_relu5
I0301 21:07:11.390694 32608 net.cpp:157] Top shape: 100 128 8 8 (819200)
I0301 21:07:11.390697 32608 net.cpp:165] Memory required for data: 638976400
I0301 21:07:11.390700 32608 layer_factory.hpp:77] Creating layer pool5
I0301 21:07:11.390710 32608 net.cpp:106] Creating Layer pool5
I0301 21:07:11.390714 32608 net.cpp:454] pool5 <- bn5
I0301 21:07:11.390719 32608 net.cpp:411] pool5 -> pool5
I0301 21:07:11.390784 32608 net.cpp:150] Setting up pool5
I0301 21:07:11.390790 32608 net.cpp:157] Top shape: 100 128 4 4 (204800)
I0301 21:07:11.390794 32608 net.cpp:165] Memory required for data: 639795600
I0301 21:07:11.390797 32608 layer_factory.hpp:77] Creating layer da_fc6
I0301 21:07:11.390808 32608 net.cpp:106] Creating Layer da_fc6
I0301 21:07:11.390812 32608 net.cpp:454] da_fc6 <- pool5
I0301 21:07:11.390817 32608 net.cpp:411] da_fc6 -> da_fc6
I0301 21:07:11.532624 32608 net.cpp:150] Setting up da_fc6
I0301 21:07:11.532649 32608 net.cpp:157] Top shape: 100 4096 (409600)
I0301 21:07:11.532652 32608 net.cpp:165] Memory required for data: 641434000
I0301 21:07:11.532662 32608 layer_factory.hpp:77] Creating layer bn6_2
I0301 21:07:11.532672 32608 net.cpp:106] Creating Layer bn6_2
I0301 21:07:11.532678 32608 net.cpp:454] bn6_2 <- da_fc6
I0301 21:07:11.532690 32608 net.cpp:411] bn6_2 -> bn6_2
I0301 21:07:11.533028 32608 net.cpp:150] Setting up bn6_2
I0301 21:07:11.533035 32608 net.cpp:157] Top shape: 100 4096 (409600)
I0301 21:07:11.533038 32608 net.cpp:165] Memory required for data: 643072400
I0301 21:07:11.533053 32608 layer_factory.hpp:77] Creating layer da_relu6
I0301 21:07:11.533059 32608 net.cpp:106] Creating Layer da_relu6
I0301 21:07:11.533062 32608 net.cpp:454] da_relu6 <- bn6_2
I0301 21:07:11.533068 32608 net.cpp:397] da_relu6 -> bn6_2 (in-place)
I0301 21:07:11.533077 32608 net.cpp:150] Setting up da_relu6
I0301 21:07:11.533082 32608 net.cpp:157] Top shape: 100 4096 (409600)
I0301 21:07:11.533085 32608 net.cpp:165] Memory required for data: 644710800
I0301 21:07:11.533087 32608 layer_factory.hpp:77] Creating layer da_drop6
I0301 21:07:11.533094 32608 net.cpp:106] Creating Layer da_drop6
I0301 21:07:11.533097 32608 net.cpp:454] da_drop6 <- bn6_2
I0301 21:07:11.533102 32608 net.cpp:397] da_drop6 -> bn6_2 (in-place)
I0301 21:07:11.533138 32608 net.cpp:150] Setting up da_drop6
I0301 21:07:11.533145 32608 net.cpp:157] Top shape: 100 4096 (409600)
I0301 21:07:11.533149 32608 net.cpp:165] Memory required for data: 646349200
I0301 21:07:11.533151 32608 layer_factory.hpp:77] Creating layer da_fc7
I0301 21:07:11.533160 32608 net.cpp:106] Creating Layer da_fc7
I0301 21:07:11.533164 32608 net.cpp:454] da_fc7 <- bn6_2
I0301 21:07:11.533171 32608 net.cpp:411] da_fc7 -> da_fc7
I0301 21:07:12.045675 32608 net.cpp:150] Setting up da_fc7
I0301 21:07:12.045698 32608 net.cpp:157] Top shape: 100 4096 (409600)
I0301 21:07:12.045702 32608 net.cpp:165] Memory required for data: 647987600
I0301 21:07:12.045714 32608 layer_factory.hpp:77] Creating layer bn7
I0301 21:07:12.045725 32608 net.cpp:106] Creating Layer bn7
I0301 21:07:12.045730 32608 net.cpp:454] bn7 <- da_fc7
I0301 21:07:12.045739 32608 net.cpp:411] bn7 -> bn7
I0301 21:07:12.046099 32608 net.cpp:150] Setting up bn7
I0301 21:07:12.046108 32608 net.cpp:157] Top shape: 100 4096 (409600)
I0301 21:07:12.046111 32608 net.cpp:165] Memory required for data: 649626000
I0301 21:07:12.046130 32608 layer_factory.hpp:77] Creating layer da_relu7
I0301 21:07:12.046138 32608 net.cpp:106] Creating Layer da_relu7
I0301 21:07:12.046142 32608 net.cpp:454] da_relu7 <- bn7
I0301 21:07:12.046149 32608 net.cpp:397] da_relu7 -> bn7 (in-place)
I0301 21:07:12.046156 32608 net.cpp:150] Setting up da_relu7
I0301 21:07:12.046161 32608 net.cpp:157] Top shape: 100 4096 (409600)
I0301 21:07:12.046164 32608 net.cpp:165] Memory required for data: 651264400
I0301 21:07:12.046167 32608 layer_factory.hpp:77] Creating layer da_drop7
I0301 21:07:12.046175 32608 net.cpp:106] Creating Layer da_drop7
I0301 21:07:12.046178 32608 net.cpp:454] da_drop7 <- bn7
I0301 21:07:12.046183 32608 net.cpp:397] da_drop7 -> bn7 (in-place)
I0301 21:07:12.046221 32608 net.cpp:150] Setting up da_drop7
I0301 21:07:12.046227 32608 net.cpp:157] Top shape: 100 4096 (409600)
I0301 21:07:12.046231 32608 net.cpp:165] Memory required for data: 652902800
I0301 21:07:12.046233 32608 layer_factory.hpp:77] Creating layer da_cls_score
I0301 21:07:12.046244 32608 net.cpp:106] Creating Layer da_cls_score
I0301 21:07:12.046248 32608 net.cpp:454] da_cls_score <- bn7
I0301 21:07:12.046253 32608 net.cpp:411] da_cls_score -> cls_score_1
I0301 21:07:12.048308 32608 net.cpp:150] Setting up da_cls_score
I0301 21:07:12.048321 32608 net.cpp:157] Top shape: 100 19 (1900)
I0301 21:07:12.048324 32608 net.cpp:165] Memory required for data: 652910400
I0301 21:07:12.048331 32608 layer_factory.hpp:77] Creating layer da_loss_cls
I0301 21:07:12.048337 32608 net.cpp:106] Creating Layer da_loss_cls
I0301 21:07:12.048341 32608 net.cpp:454] da_loss_cls <- cls_score_1
I0301 21:07:12.048346 32608 net.cpp:454] da_loss_cls <- label
I0301 21:07:12.048351 32608 net.cpp:411] da_loss_cls -> da_loss_cls
…
