…
I0301 21:49:37.372094 10002 solver.cpp:91] Creating training net from net file: train.prototxt
I0301 21:49:37.374069 10002 net.cpp:49] Initializing net from parameters: 
name: "sungrbd"
state {
  phase: TRAIN
}
layer {
  name: "data"
  type: "ImageData"
  top: "data"
  top: "label"
  include {
    phase: TRAIN
  }
  transform_param {
    mirror: false
    crop_size: 128
    mean_value: 1
  }
  image_data_param {
    source: "/nfs/hn38/users/xiaolonw/sunrgbd/SUNRGBDtoolbox/trainlist2.txt"
    batch_size: 100
    shuffle: true
    new_height: 128
    new_width: 128
    root_folder: "/scratch/xiaolonw/sunrgbd/data/"
  }
}
layer {
  name: "da_conv1"
  type: "Convolution"
  bottom: "data"
  top: "da_conv1"
  param {
    lr_mult: 1
    decay_mult: 1
  }
  param {
    lr_mult: 2
    decay_mult: 0
  }
  convolution_param {
    num_output: 64
    pad: 2
    kernel_size: 5
    stride: 2
    weight_filler {
      type: "gaussian"
      std: 0.01
    }
    bias_filler {
      type: "constant"
      value: 0
    }
  }
}
layer {
  name: "bn1"
  type: "BatchNorm"
  bottom: "da_conv1"
  top: "bn1"
}
layer {
  name: "da_relu1"
  type: "ReLU"
  bottom: "bn1"
  top: "bn1"
  relu_param {
    negative_slope: 0.2
  }
}
layer {
  name: "da_conv2"
  type: "Convolution"
  bottom: "bn1"
  top: "da_conv2"
  param {
    lr_mult: 1
    decay_mult: 1
  }
  param {
    lr_mult: 2
    decay_mult: 0
  }
  convolution_param {
    num_output: 128
    pad: 2
    kernel_size: 5
    stride: 2
    weight_filler {
      type: "gaussian"
      std: 0.01
    }
    bias_filler {
      type: "constant"
      value: 1
    }
  }
}
layer {
  name: "bn2"
  type: "BatchNorm"
  bottom: "da_conv2"
  top: "bn2"
}
layer {
  name: "da_relu2"
  type: "ReLU"
  bottom: "bn2"
  top: "bn2"
  relu_param {
    negative_slope: 0.2
  }
}
layer {
  name: "da_conv3"
  type: "Convolution"
  bottom: "bn2"
  top: "da_conv3"
  param {
    lr_mult: 1
    decay_mult: 1
  }
  param {
    lr_mult: 2
    decay_mult: 0
  }
  convolution_param {
    num_output: 256
    pad: 1
    kernel_size: 3
    stride: 2
    weight_filler {
      type: "gaussian"
      std: 0.01
    }
    bias_filler {
      type: "constant"
      value: 0
    }
  }
}
layer {
  name: "bn3"
  type: "BatchNorm"
  bottom: "da_conv3"
  top: "bn3"
}
layer {
  name: "da_relu3"
  type: "ReLU"
  bottom: "bn3"
  top: "bn3"
  relu_param {
    negative_slope: 0.2
  }
}
layer {
  name: "da_conv4"
  type: "Convolution"
  bottom: "bn3"
  top: "da_conv4"
  param {
    lr_mult: 1
    decay_mult: 1
  }
  param {
    lr_mult: 2
    decay_mult: 0
  }
  convolution_param {
    num_output: 512
    pad: 1
    kernel_size: 3
    stride: 2
    weight_filler {
      type: "gaussian"
      std: 0.01
    }
    bias_filler {
      type: "constant"
      value: 1
    }
  }
}
layer {
  name: "bn4"
  type: "BatchNorm"
  bottom: "da_conv4"
  top: "bn4"
}
layer {
  name: "da_relu4"
  type: "ReLU"
  bottom: "bn4"
  top: "bn4"
  relu_param {
    negative_slope: 0.2
  }
}
layer {
  name: "da_conv5"
  type: "Convolution"
  bottom: "bn4"
  top: "da_conv5"
  param {
    lr_mult: 1
    decay_mult: 1
  }
  param {
    lr_mult: 2
    decay_mult: 0
  }
  convolution_param {
    num_output: 128
    pad: 1
    kernel_size: 3
    stride: 1
    weight_filler {
      type: "gaussian"
      std: 0.01
    }
    bias_filler {
      type: "constant"
      value: 1
    }
  }
}
layer {
  name: "bn5"
  type: "BatchNorm"
  bottom: "da_conv5"
  top: "bn5"
}
layer {
  name: "da_relu5"
  type: "ReLU"
  bottom: "bn5"
  top: "bn5"
  relu_param {
    negative_slope: 0.2
  }
}
layer {
  name: "pool5"
  type: "Pooling"
  bottom: "bn5"
  top: "pool5"
  pooling_param {
    pool: MAX
    kernel_size: 3
    stride: 2
  }
}
layer {
  name: "fc6"
  type: "InnerProduct"
  bottom: "pool5"
  top: "fc6"
  param {
    lr_mult: 1
    decay_mult: 1
  }
  param {
    lr_mult: 2
    decay_mult: 0
  }
  inner_product_param {
    num_output: 4096
    weight_filler {
      type: "gaussian"
      std: 0.005
    }
    bias_filler {
      type: "constant"
      value: 1
    }
  }
}
layer {
  name: "bn6_2"
  type: "BatchNorm"
  bottom: "fc6"
  top: "bn6_2"
}
layer {
  name: "da_relu6"
  type: "ReLU"
  bottom: "bn6_2"
  top: "bn6_2"
}
layer {
  name: "da_drop6"
  type: "Dropout"
  bottom: "bn6_2"
  top: "bn6_2"
  dropout_param {
    dropout_ratio: 0.5
  }
}
layer {
  name: "fc7"
  type: "InnerProduct"
  bottom: "bn6_2"
  top: "fc7"
  param {
    lr_mult: 1
    decay_mult: 1
  }
  param {
    lr_mult: 2
    decay_mult: 0
  }
  inner_product_param {
    num_output: 4096
    weight_filler {
      type: "gaussian"
      std: 0.005
    }
    bias_filler {
      type: "constant"
      value: 1
    }
  }
}
layer {
  name: "bn7"
  type: "BatchNorm"
  bottom: "fc7"
  top: "bn7"
}
layer {
  name: "da_relu7"
  type: "ReLU"
  bottom: "bn7"
  top: "bn7"
}
layer {
  name: "da_drop7"
  type: "Dropout"
  bottom: "bn7"
  top: "bn7"
  dropout_param {
    dropout_ratio: 0.5
  }
}
layer {
  name: "cls_score"
  type: "InnerProduct"
  bottom: "bn7"
  top: "cls_score"
  param {
    lr_mult: 1
    decay_mult: 1
  }
  param {
    lr_mult: 2
    decay_mult: 0
  }
  inner_product_param {
    num_output: 19
    weight_filler {
      type: "gaussian"
      std: 0.01
    }
    bias_filler {
      type: "constant"
      value: 0
    }
  }
}
layer {
  name: "loss_cls"
  type: "SoftmaxWithLoss"
  bottom: "cls_score"
  bottom: "label"
  top: "loss_cls"
}
I0301 21:49:37.374193 10002 layer_factory.hpp:77] Creating layer data
I0301 21:49:37.374218 10002 net.cpp:106] Creating Layer data
I0301 21:49:37.374224 10002 net.cpp:411] data -> data
I0301 21:49:37.374243 10002 net.cpp:411] data -> label
I0301 21:49:37.374838 10002 image_data_layer.cpp:38] Opening file /nfs/hn38/users/xiaolonw/sunrgbd/SUNRGBDtoolbox/trainlist2.txt
I0301 21:49:37.385010 10002 image_data_layer.cpp:51] Shuffling data
I0301 21:49:37.386188 10002 image_data_layer.cpp:56] A total of 4845 images.
I0301 21:49:37.401350 10002 image_data_layer.cpp:84] output data size: 100,6,128,128
I0301 21:49:37.469717 10002 net.cpp:150] Setting up data
I0301 21:49:37.469745 10002 net.cpp:157] Top shape: 100 6 128 128 (9830400)
I0301 21:49:37.469753 10002 net.cpp:157] Top shape: 100 (100)
I0301 21:49:37.469755 10002 net.cpp:165] Memory required for data: 39322000
I0301 21:49:37.469763 10002 layer_factory.hpp:77] Creating layer da_conv1
I0301 21:49:37.469780 10002 net.cpp:106] Creating Layer da_conv1
I0301 21:49:37.469784 10002 net.cpp:454] da_conv1 <- data
I0301 21:49:37.469792 10002 net.cpp:411] da_conv1 -> da_conv1
I0301 21:49:37.471359 10002 net.cpp:150] Setting up da_conv1
I0301 21:49:37.471374 10002 net.cpp:157] Top shape: 100 64 64 64 (26214400)
I0301 21:49:37.471405 10002 net.cpp:165] Memory required for data: 144179600
I0301 21:49:37.471421 10002 layer_factory.hpp:77] Creating layer bn1
I0301 21:49:37.471431 10002 net.cpp:106] Creating Layer bn1
I0301 21:49:37.471434 10002 net.cpp:454] bn1 <- da_conv1
I0301 21:49:37.471439 10002 net.cpp:411] bn1 -> bn1
I0301 21:49:37.472142 10002 net.cpp:150] Setting up bn1
I0301 21:49:37.472158 10002 net.cpp:157] Top shape: 100 64 64 64 (26214400)
I0301 21:49:37.472162 10002 net.cpp:165] Memory required for data: 249037200
I0301 21:49:37.472177 10002 layer_factory.hpp:77] Creating layer da_relu1
I0301 21:49:37.472187 10002 net.cpp:106] Creating Layer da_relu1
I0301 21:49:37.472193 10002 net.cpp:454] da_relu1 <- bn1
I0301 21:49:37.472199 10002 net.cpp:397] da_relu1 -> bn1 (in-place)
I0301 21:49:37.472215 10002 net.cpp:150] Setting up da_relu1
I0301 21:49:37.472220 10002 net.cpp:157] Top shape: 100 64 64 64 (26214400)
I0301 21:49:37.472223 10002 net.cpp:165] Memory required for data: 353894800
I0301 21:49:37.472226 10002 layer_factory.hpp:77] Creating layer da_conv2
I0301 21:49:37.472240 10002 net.cpp:106] Creating Layer da_conv2
I0301 21:49:37.472244 10002 net.cpp:454] da_conv2 <- bn1
I0301 21:49:37.472249 10002 net.cpp:411] da_conv2 -> da_conv2
I0301 21:49:37.476778 10002 net.cpp:150] Setting up da_conv2
I0301 21:49:37.476800 10002 net.cpp:157] Top shape: 100 128 32 32 (13107200)
I0301 21:49:37.476804 10002 net.cpp:165] Memory required for data: 406323600
I0301 21:49:37.476812 10002 layer_factory.hpp:77] Creating layer bn2
I0301 21:49:37.476822 10002 net.cpp:106] Creating Layer bn2
I0301 21:49:37.476826 10002 net.cpp:454] bn2 <- da_conv2
I0301 21:49:37.476833 10002 net.cpp:411] bn2 -> bn2
I0301 21:49:37.477025 10002 net.cpp:150] Setting up bn2
I0301 21:49:37.477031 10002 net.cpp:157] Top shape: 100 128 32 32 (13107200)
I0301 21:49:37.477035 10002 net.cpp:165] Memory required for data: 458752400
I0301 21:49:37.477048 10002 layer_factory.hpp:77] Creating layer da_relu2
I0301 21:49:37.477056 10002 net.cpp:106] Creating Layer da_relu2
I0301 21:49:37.477059 10002 net.cpp:454] da_relu2 <- bn2
I0301 21:49:37.477064 10002 net.cpp:397] da_relu2 -> bn2 (in-place)
I0301 21:49:37.477072 10002 net.cpp:150] Setting up da_relu2
I0301 21:49:37.477075 10002 net.cpp:157] Top shape: 100 128 32 32 (13107200)
I0301 21:49:37.477078 10002 net.cpp:165] Memory required for data: 511181200
I0301 21:49:37.477082 10002 layer_factory.hpp:77] Creating layer da_conv3
I0301 21:49:37.477088 10002 net.cpp:106] Creating Layer da_conv3
I0301 21:49:37.477092 10002 net.cpp:454] da_conv3 <- bn2
I0301 21:49:37.477097 10002 net.cpp:411] da_conv3 -> da_conv3
I0301 21:49:37.483328 10002 net.cpp:150] Setting up da_conv3
I0301 21:49:37.483348 10002 net.cpp:157] Top shape: 100 256 16 16 (6553600)
I0301 21:49:37.483352 10002 net.cpp:165] Memory required for data: 537395600
I0301 21:49:37.483361 10002 layer_factory.hpp:77] Creating layer bn3
I0301 21:49:37.483372 10002 net.cpp:106] Creating Layer bn3
I0301 21:49:37.483381 10002 net.cpp:454] bn3 <- da_conv3
I0301 21:49:37.483388 10002 net.cpp:411] bn3 -> bn3
I0301 21:49:37.483582 10002 net.cpp:150] Setting up bn3
I0301 21:49:37.483589 10002 net.cpp:157] Top shape: 100 256 16 16 (6553600)
I0301 21:49:37.483592 10002 net.cpp:165] Memory required for data: 563610000
I0301 21:49:37.483600 10002 layer_factory.hpp:77] Creating layer da_relu3
I0301 21:49:37.483608 10002 net.cpp:106] Creating Layer da_relu3
I0301 21:49:37.483610 10002 net.cpp:454] da_relu3 <- bn3
I0301 21:49:37.483618 10002 net.cpp:397] da_relu3 -> bn3 (in-place)
I0301 21:49:37.483626 10002 net.cpp:150] Setting up da_relu3
I0301 21:49:37.483633 10002 net.cpp:157] Top shape: 100 256 16 16 (6553600)
I0301 21:49:37.483638 10002 net.cpp:165] Memory required for data: 589824400
I0301 21:49:37.483641 10002 layer_factory.hpp:77] Creating layer da_conv4
I0301 21:49:37.483649 10002 net.cpp:106] Creating Layer da_conv4
I0301 21:49:37.483652 10002 net.cpp:454] da_conv4 <- bn3
I0301 21:49:37.483659 10002 net.cpp:411] da_conv4 -> da_conv4
I0301 21:49:37.504736 10002 net.cpp:150] Setting up da_conv4
I0301 21:49:37.504760 10002 net.cpp:157] Top shape: 100 512 8 8 (3276800)
I0301 21:49:37.504763 10002 net.cpp:165] Memory required for data: 602931600
I0301 21:49:37.504778 10002 layer_factory.hpp:77] Creating layer bn4
I0301 21:49:37.504791 10002 net.cpp:106] Creating Layer bn4
I0301 21:49:37.504796 10002 net.cpp:454] bn4 <- da_conv4
I0301 21:49:37.504802 10002 net.cpp:411] bn4 -> bn4
I0301 21:49:37.505017 10002 net.cpp:150] Setting up bn4
I0301 21:49:37.505023 10002 net.cpp:157] Top shape: 100 512 8 8 (3276800)
I0301 21:49:37.505026 10002 net.cpp:165] Memory required for data: 616038800
I0301 21:49:37.505038 10002 layer_factory.hpp:77] Creating layer da_relu4
I0301 21:49:37.505044 10002 net.cpp:106] Creating Layer da_relu4
I0301 21:49:37.505048 10002 net.cpp:454] da_relu4 <- bn4
I0301 21:49:37.505053 10002 net.cpp:397] da_relu4 -> bn4 (in-place)
I0301 21:49:37.505060 10002 net.cpp:150] Setting up da_relu4
I0301 21:49:37.505064 10002 net.cpp:157] Top shape: 100 512 8 8 (3276800)
I0301 21:49:37.505066 10002 net.cpp:165] Memory required for data: 629146000
I0301 21:49:37.505069 10002 layer_factory.hpp:77] Creating layer da_conv5
I0301 21:49:37.505079 10002 net.cpp:106] Creating Layer da_conv5
I0301 21:49:37.505080 10002 net.cpp:454] da_conv5 <- bn4
I0301 21:49:37.505087 10002 net.cpp:411] da_conv5 -> da_conv5
I0301 21:49:37.515777 10002 net.cpp:150] Setting up da_conv5
I0301 21:49:37.515799 10002 net.cpp:157] Top shape: 100 128 8 8 (819200)
I0301 21:49:37.515804 10002 net.cpp:165] Memory required for data: 632422800
I0301 21:49:37.515811 10002 layer_factory.hpp:77] Creating layer bn5
I0301 21:49:37.515822 10002 net.cpp:106] Creating Layer bn5
I0301 21:49:37.515827 10002 net.cpp:454] bn5 <- da_conv5
I0301 21:49:37.515836 10002 net.cpp:411] bn5 -> bn5
I0301 21:49:37.516022 10002 net.cpp:150] Setting up bn5
I0301 21:49:37.516028 10002 net.cpp:157] Top shape: 100 128 8 8 (819200)
I0301 21:49:37.516031 10002 net.cpp:165] Memory required for data: 635699600
I0301 21:49:37.516041 10002 layer_factory.hpp:77] Creating layer da_relu5
I0301 21:49:37.516048 10002 net.cpp:106] Creating Layer da_relu5
I0301 21:49:37.516052 10002 net.cpp:454] da_relu5 <- bn5
I0301 21:49:37.516055 10002 net.cpp:397] da_relu5 -> bn5 (in-place)
I0301 21:49:37.516062 10002 net.cpp:150] Setting up da_relu5
I0301 21:49:37.516067 10002 net.cpp:157] Top shape: 100 128 8 8 (819200)
I0301 21:49:37.516068 10002 net.cpp:165] Memory required for data: 638976400
I0301 21:49:37.516072 10002 layer_factory.hpp:77] Creating layer pool5
I0301 21:49:37.516080 10002 net.cpp:106] Creating Layer pool5
I0301 21:49:37.516083 10002 net.cpp:454] pool5 <- bn5
I0301 21:49:37.516088 10002 net.cpp:411] pool5 -> pool5
I0301 21:49:37.516141 10002 net.cpp:150] Setting up pool5
I0301 21:49:37.516147 10002 net.cpp:157] Top shape: 100 128 4 4 (204800)
I0301 21:49:37.516150 10002 net.cpp:165] Memory required for data: 639795600
I0301 21:49:37.516154 10002 layer_factory.hpp:77] Creating layer fc6
I0301 21:49:37.516166 10002 net.cpp:106] Creating Layer fc6
I0301 21:49:37.516170 10002 net.cpp:454] fc6 <- pool5
I0301 21:49:37.516175 10002 net.cpp:411] fc6 -> fc6
I0301 21:49:37.662559 10002 net.cpp:150] Setting up fc6
I0301 21:49:37.662582 10002 net.cpp:157] Top shape: 100 4096 (409600)
I0301 21:49:37.662585 10002 net.cpp:165] Memory required for data: 641434000
I0301 21:49:37.662596 10002 layer_factory.hpp:77] Creating layer bn6_2
I0301 21:49:37.662607 10002 net.cpp:106] Creating Layer bn6_2
I0301 21:49:37.662612 10002 net.cpp:454] bn6_2 <- fc6
I0301 21:49:37.662622 10002 net.cpp:411] bn6_2 -> bn6_2
I0301 21:49:37.662834 10002 net.cpp:150] Setting up bn6_2
I0301 21:49:37.662843 10002 net.cpp:157] Top shape: 100 4096 (409600)
I0301 21:49:37.662847 10002 net.cpp:165] Memory required for data: 643072400
I0301 21:49:37.662854 10002 layer_factory.hpp:77] Creating layer da_relu6
I0301 21:49:37.662861 10002 net.cpp:106] Creating Layer da_relu6
I0301 21:49:37.662864 10002 net.cpp:454] da_relu6 <- bn6_2
I0301 21:49:37.662869 10002 net.cpp:397] da_relu6 -> bn6_2 (in-place)
I0301 21:49:37.662875 10002 net.cpp:150] Setting up da_relu6
I0301 21:49:37.662879 10002 net.cpp:157] Top shape: 100 4096 (409600)
I0301 21:49:37.662883 10002 net.cpp:165] Memory required for data: 644710800
I0301 21:49:37.662884 10002 layer_factory.hpp:77] Creating layer da_drop6
I0301 21:49:37.662890 10002 net.cpp:106] Creating Layer da_drop6
I0301 21:49:37.662894 10002 net.cpp:454] da_drop6 <- bn6_2
I0301 21:49:37.662899 10002 net.cpp:397] da_drop6 -> bn6_2 (in-place)
I0301 21:49:37.662933 10002 net.cpp:150] Setting up da_drop6
I0301 21:49:37.662940 10002 net.cpp:157] Top shape: 100 4096 (409600)
I0301 21:49:37.662943 10002 net.cpp:165] Memory required for data: 646349200
I0301 21:49:37.662946 10002 layer_factory.hpp:77] Creating layer fc7
I0301 21:49:37.662955 10002 net.cpp:106] Creating Layer fc7
I0301 21:49:37.662958 10002 net.cpp:454] fc7 <- bn6_2
I0301 21:49:37.662992 10002 net.cpp:411] fc7 -> fc7
I0301 21:49:37.954533 10002 net.cpp:150] Setting up fc7
I0301 21:49:37.954555 10002 net.cpp:157] Top shape: 100 4096 (409600)
I0301 21:49:37.954560 10002 net.cpp:165] Memory required for data: 647987600
I0301 21:49:37.954569 10002 layer_factory.hpp:77] Creating layer bn7
I0301 21:49:37.954578 10002 net.cpp:106] Creating Layer bn7
I0301 21:49:37.954586 10002 net.cpp:454] bn7 <- fc7
I0301 21:49:37.954601 10002 net.cpp:411] bn7 -> bn7
I0301 21:49:37.954803 10002 net.cpp:150] Setting up bn7
I0301 21:49:37.954812 10002 net.cpp:157] Top shape: 100 4096 (409600)
I0301 21:49:37.954816 10002 net.cpp:165] Memory required for data: 649626000
I0301 21:49:37.954830 10002 layer_factory.hpp:77] Creating layer da_relu7
I0301 21:49:37.954840 10002 net.cpp:106] Creating Layer da_relu7
I0301 21:49:37.954844 10002 net.cpp:454] da_relu7 <- bn7
I0301 21:49:37.954849 10002 net.cpp:397] da_relu7 -> bn7 (in-place)
I0301 21:49:37.954857 10002 net.cpp:150] Setting up da_relu7
I0301 21:49:37.954862 10002 net.cpp:157] Top shape: 100 4096 (409600)
I0301 21:49:37.954866 10002 net.cpp:165] Memory required for data: 651264400
I0301 21:49:37.954869 10002 layer_factory.hpp:77] Creating layer da_drop7
I0301 21:49:37.954875 10002 net.cpp:106] Creating Layer da_drop7
I0301 21:49:37.954879 10002 net.cpp:454] da_drop7 <- bn7
I0301 21:49:37.954885 10002 net.cpp:397] da_drop7 -> bn7 (in-place)
I0301 21:49:37.954908 10002 net.cpp:150] Setting up da_drop7
I0301 21:49:37.954915 10002 net.cpp:157] Top shape: 100 4096 (409600)
I0301 21:49:37.954918 10002 net.cpp:165] Memory required for data: 652902800
I0301 21:49:37.954921 10002 layer_factory.hpp:77] Creating layer cls_score
I0301 21:49:37.954931 10002 net.cpp:106] Creating Layer cls_score
I0301 21:49:37.954936 10002 net.cpp:454] cls_score <- bn7
I0301 21:49:37.954941 10002 net.cpp:411] cls_score -> cls_score
I0301 21:49:37.956926 10002 net.cpp:150] Setting up cls_score
I0301 21:49:37.956939 10002 net.cpp:157] Top shape: 100 19 (1900)
I0301 21:49:37.956943 10002 net.cpp:165] Memory required for data: 652910400
I0301 21:49:37.956949 10002 layer_factory.hpp:77] Creating layer loss_cls
I0301 21:49:37.956956 10002 net.cpp:106] Creating Layer loss_cls
I0301 21:49:37.956959 10002 net.cpp:454] loss_cls <- cls_score
I0301 21:49:37.956964 10002 net.cpp:454] loss_cls <- label
I0301 21:49:37.956969 10002 net.cpp:411] loss_cls -> loss_cls
…
