…
I0301 21:47:48.925102  9657 solver.cpp:91] Creating training net from net file: train.prototxt
I0301 21:47:48.927005  9657 net.cpp:49] Initializing net from parameters: 
name: "sungrbd"
state {
  phase: TRAIN
}
layer {
  name: "data"
  type: "ImageData"
  top: "data"
  top: "label"
  include {
    phase: TRAIN
  }
  transform_param {
    mirror: false
    crop_size: 128
    mean_value: 1
  }
  image_data_param {
    source: "/nfs/hn38/users/xiaolonw/sunrgbd/SUNRGBDtoolbox/trainlist2.txt"
    batch_size: 100
    shuffle: true
    new_height: 128
    new_width: 128
    root_folder: "/scratch/xiaolonw/sunrgbd/data/"
  }
}
layer {
  name: "da_conv1"
  type: "Convolution"
  bottom: "data"
  top: "da_conv1"
  param {
    lr_mult: 1
    decay_mult: 1
  }
  param {
    lr_mult: 2
    decay_mult: 0
  }
  convolution_param {
    num_output: 64
    pad: 2
    kernel_size: 5
    stride: 2
    weight_filler {
      type: "gaussian"
      std: 0.01
    }
    bias_filler {
      type: "constant"
      value: 0
    }
  }
}
layer {
  name: "bn1"
  type: "BatchNorm"
  bottom: "da_conv1"
  top: "bn1"
}
layer {
  name: "da_relu1"
  type: "ReLU"
  bottom: "bn1"
  top: "bn1"
  relu_param {
    negative_slope: 0.2
  }
}
layer {
  name: "da_conv2"
  type: "Convolution"
  bottom: "bn1"
  top: "da_conv2"
  param {
    lr_mult: 1
    decay_mult: 1
  }
  param {
    lr_mult: 2
    decay_mult: 0
  }
  convolution_param {
    num_output: 128
    pad: 2
    kernel_size: 5
    stride: 2
    weight_filler {
      type: "gaussian"
      std: 0.01
    }
    bias_filler {
      type: "constant"
      value: 1
    }
  }
}
layer {
  name: "bn2"
  type: "BatchNorm"
  bottom: "da_conv2"
  top: "bn2"
}
layer {
  name: "da_relu2"
  type: "ReLU"
  bottom: "bn2"
  top: "bn2"
  relu_param {
    negative_slope: 0.2
  }
}
layer {
  name: "da_conv3"
  type: "Convolution"
  bottom: "bn2"
  top: "da_conv3"
  param {
    lr_mult: 1
    decay_mult: 1
  }
  param {
    lr_mult: 2
    decay_mult: 0
  }
  convolution_param {
    num_output: 256
    pad: 1
    kernel_size: 3
    stride: 2
    weight_filler {
      type: "gaussian"
      std: 0.01
    }
    bias_filler {
      type: "constant"
      value: 0
    }
  }
}
layer {
  name: "bn3"
  type: "BatchNorm"
  bottom: "da_conv3"
  top: "bn3"
}
layer {
  name: "da_relu3"
  type: "ReLU"
  bottom: "bn3"
  top: "bn3"
  relu_param {
    negative_slope: 0.2
  }
}
layer {
  name: "da_conv4"
  type: "Convolution"
  bottom: "bn3"
  top: "da_conv4"
  param {
    lr_mult: 1
    decay_mult: 1
  }
  param {
    lr_mult: 2
    decay_mult: 0
  }
  convolution_param {
    num_output: 512
    pad: 1
    kernel_size: 3
    stride: 2
    weight_filler {
      type: "gaussian"
      std: 0.01
    }
    bias_filler {
      type: "constant"
      value: 1
    }
  }
}
layer {
  name: "bn4"
  type: "BatchNorm"
  bottom: "da_conv4"
  top: "bn4"
}
layer {
  name: "da_relu4"
  type: "ReLU"
  bottom: "bn4"
  top: "bn4"
  relu_param {
    negative_slope: 0.2
  }
}
layer {
  name: "da_conv5"
  type: "Convolution"
  bottom: "bn4"
  top: "da_conv5"
  param {
    lr_mult: 1
    decay_mult: 1
  }
  param {
    lr_mult: 2
    decay_mult: 0
  }
  convolution_param {
    num_output: 128
    pad: 1
    kernel_size: 3
    stride: 1
    weight_filler {
      type: "gaussian"
      std: 0.01
    }
    bias_filler {
      type: "constant"
      value: 1
    }
  }
}
layer {
  name: "bn5"
  type: "BatchNorm"
  bottom: "da_conv5"
  top: "bn5"
}
layer {
  name: "da_relu5"
  type: "ReLU"
  bottom: "bn5"
  top: "bn5"
  relu_param {
    negative_slope: 0.2
  }
}
layer {
  name: "pool5"
  type: "Pooling"
  bottom: "bn5"
  top: "pool5"
  pooling_param {
    pool: MAX
    kernel_size: 3
    stride: 2
  }
}
layer {
  name: "fc6"
  type: "InnerProduct"
  bottom: "pool5"
  top: "fc6"
  param {
    lr_mult: 1
    decay_mult: 1
  }
  param {
    lr_mult: 2
    decay_mult: 0
  }
  inner_product_param {
    num_output: 4096
    weight_filler {
      type: "gaussian"
      std: 0.005
    }
    bias_filler {
      type: "constant"
      value: 1
    }
  }
}
layer {
  name: "bn6_2"
  type: "BatchNorm"
  bottom: "fc6"
  top: "bn6_2"
}
layer {
  name: "da_relu6"
  type: "ReLU"
  bottom: "bn6_2"
  top: "bn6_2"
}
layer {
  name: "da_drop6"
  type: "Dropout"
  bottom: "bn6_2"
  top: "bn6_2"
  dropout_param {
    dropout_ratio: 0.5
  }
}
layer {
  name: "fc7"
  type: "InnerProduct"
  bottom: "bn6_2"
  top: "fc7"
  param {
    lr_mult: 1
    decay_mult: 1
  }
  param {
    lr_mult: 2
    decay_mult: 0
  }
  inner_product_param {
    num_output: 4096
    weight_filler {
      type: "gaussian"
      std: 0.005
    }
    bias_filler {
      type: "constant"
      value: 1
    }
  }
}
layer {
  name: "bn7"
  type: "BatchNorm"
  bottom: "fc7"
  top: "bn7"
}
layer {
  name: "da_relu7"
  type: "ReLU"
  bottom: "bn7"
  top: "bn7"
}
layer {
  name: "da_drop7"
  type: "Dropout"
  bottom: "bn7"
  top: "bn7"
  dropout_param {
    dropout_ratio: 0.5
  }
}
layer {
  name: "cls_score"
  type: "InnerProduct"
  bottom: "bn7"
  top: "cls_score"
  param {
    lr_mult: 1
    decay_mult: 1
  }
  param {
    lr_mult: 2
    decay_mult: 0
  }
  inner_product_param {
    num_output: 19
    weight_filler {
      type: "gaussian"
      std: 0.01
    }
    bias_filler {
      type: "constant"
      value: 0
    }
  }
}
layer {
  name: "loss_cls"
  type: "SoftmaxWithLoss"
  bottom: "cls_score"
  bottom: "label"
  top: "loss_cls"
}
I0301 21:47:48.927125  9657 layer_factory.hpp:77] Creating layer data
I0301 21:47:48.927148  9657 net.cpp:106] Creating Layer data
I0301 21:47:48.927155  9657 net.cpp:411] data -> data
I0301 21:47:48.927171  9657 net.cpp:411] data -> label
I0301 21:47:48.927769  9657 image_data_layer.cpp:38] Opening file /nfs/hn38/users/xiaolonw/sunrgbd/SUNRGBDtoolbox/trainlist2.txt
I0301 21:47:48.939260  9657 image_data_layer.cpp:51] Shuffling data
I0301 21:47:48.940414  9657 image_data_layer.cpp:56] A total of 4845 images.
I0301 21:47:48.958529  9657 image_data_layer.cpp:84] output data size: 100,6,128,128
I0301 21:47:49.106451  9657 net.cpp:150] Setting up data
I0301 21:47:49.106508  9657 net.cpp:157] Top shape: 100 6 128 128 (9830400)
I0301 21:47:49.106526  9657 net.cpp:157] Top shape: 100 (100)
I0301 21:47:49.106539  9657 net.cpp:165] Memory required for data: 39322000
I0301 21:47:49.106571  9657 layer_factory.hpp:77] Creating layer da_conv1
I0301 21:47:49.106624  9657 net.cpp:106] Creating Layer da_conv1
I0301 21:47:49.106644  9657 net.cpp:454] da_conv1 <- data
I0301 21:47:49.106674  9657 net.cpp:411] da_conv1 -> da_conv1
I0301 21:47:49.111840  9657 net.cpp:150] Setting up da_conv1
I0301 21:47:49.111907  9657 net.cpp:157] Top shape: 100 64 64 64 (26214400)
I0301 21:47:49.111922  9657 net.cpp:165] Memory required for data: 144179600
I0301 21:47:49.111982  9657 layer_factory.hpp:77] Creating layer bn1
I0301 21:47:49.112020  9657 net.cpp:106] Creating Layer bn1
I0301 21:47:49.112040  9657 net.cpp:454] bn1 <- da_conv1
I0301 21:47:49.112066  9657 net.cpp:411] bn1 -> bn1
I0301 21:47:49.113052  9657 net.cpp:150] Setting up bn1
I0301 21:47:49.113085  9657 net.cpp:157] Top shape: 100 64 64 64 (26214400)
I0301 21:47:49.113095  9657 net.cpp:165] Memory required for data: 249037200
I0301 21:47:49.113157  9657 layer_factory.hpp:77] Creating layer da_relu1
I0301 21:47:49.113185  9657 net.cpp:106] Creating Layer da_relu1
I0301 21:47:49.113196  9657 net.cpp:454] da_relu1 <- bn1
I0301 21:47:49.113224  9657 net.cpp:397] da_relu1 -> bn1 (in-place)
I0301 21:47:49.113266  9657 net.cpp:150] Setting up da_relu1
I0301 21:47:49.113284  9657 net.cpp:157] Top shape: 100 64 64 64 (26214400)
I0301 21:47:49.113296  9657 net.cpp:165] Memory required for data: 353894800
I0301 21:47:49.113308  9657 layer_factory.hpp:77] Creating layer da_conv2
I0301 21:47:49.113337  9657 net.cpp:106] Creating Layer da_conv2
I0301 21:47:49.113342  9657 net.cpp:454] da_conv2 <- bn1
I0301 21:47:49.113366  9657 net.cpp:411] da_conv2 -> da_conv2
I0301 21:47:49.126868  9657 net.cpp:150] Setting up da_conv2
I0301 21:47:49.126955  9657 net.cpp:157] Top shape: 100 128 32 32 (13107200)
I0301 21:47:49.126965  9657 net.cpp:165] Memory required for data: 406323600
I0301 21:47:49.126981  9657 layer_factory.hpp:77] Creating layer bn2
I0301 21:47:49.127007  9657 net.cpp:106] Creating Layer bn2
I0301 21:47:49.127015  9657 net.cpp:454] bn2 <- da_conv2
I0301 21:47:49.127035  9657 net.cpp:411] bn2 -> bn2
I0301 21:47:49.128196  9657 net.cpp:150] Setting up bn2
I0301 21:47:49.128221  9657 net.cpp:157] Top shape: 100 128 32 32 (13107200)
I0301 21:47:49.128226  9657 net.cpp:165] Memory required for data: 458752400
I0301 21:47:49.128259  9657 layer_factory.hpp:77] Creating layer da_relu2
I0301 21:47:49.128285  9657 net.cpp:106] Creating Layer da_relu2
I0301 21:47:49.128298  9657 net.cpp:454] da_relu2 <- bn2
I0301 21:47:49.128329  9657 net.cpp:397] da_relu2 -> bn2 (in-place)
I0301 21:47:49.128365  9657 net.cpp:150] Setting up da_relu2
I0301 21:47:49.128387  9657 net.cpp:157] Top shape: 100 128 32 32 (13107200)
I0301 21:47:49.128401  9657 net.cpp:165] Memory required for data: 511181200
I0301 21:47:49.128412  9657 layer_factory.hpp:77] Creating layer da_conv3
I0301 21:47:49.128438  9657 net.cpp:106] Creating Layer da_conv3
I0301 21:47:49.128463  9657 net.cpp:454] da_conv3 <- bn2
I0301 21:47:49.128482  9657 net.cpp:411] da_conv3 -> da_conv3
I0301 21:47:49.147486  9657 net.cpp:150] Setting up da_conv3
I0301 21:47:49.147560  9657 net.cpp:157] Top shape: 100 256 16 16 (6553600)
I0301 21:47:49.147573  9657 net.cpp:165] Memory required for data: 537395600
I0301 21:47:49.147616  9657 layer_factory.hpp:77] Creating layer bn3
I0301 21:47:49.147656  9657 net.cpp:106] Creating Layer bn3
I0301 21:47:49.147666  9657 net.cpp:454] bn3 <- da_conv3
I0301 21:47:49.147683  9657 net.cpp:411] bn3 -> bn3
I0301 21:47:49.149126  9657 net.cpp:150] Setting up bn3
I0301 21:47:49.149168  9657 net.cpp:157] Top shape: 100 256 16 16 (6553600)
I0301 21:47:49.149190  9657 net.cpp:165] Memory required for data: 563610000
I0301 21:47:49.149224  9657 layer_factory.hpp:77] Creating layer da_relu3
I0301 21:47:49.149238  9657 net.cpp:106] Creating Layer da_relu3
I0301 21:47:49.149245  9657 net.cpp:454] da_relu3 <- bn3
I0301 21:47:49.149253  9657 net.cpp:397] da_relu3 -> bn3 (in-place)
I0301 21:47:49.149266  9657 net.cpp:150] Setting up da_relu3
I0301 21:47:49.149274  9657 net.cpp:157] Top shape: 100 256 16 16 (6553600)
I0301 21:47:49.149281  9657 net.cpp:165] Memory required for data: 589824400
I0301 21:47:49.149284  9657 layer_factory.hpp:77] Creating layer da_conv4
I0301 21:47:49.149305  9657 net.cpp:106] Creating Layer da_conv4
I0301 21:47:49.149312  9657 net.cpp:454] da_conv4 <- bn3
I0301 21:47:49.149327  9657 net.cpp:411] da_conv4 -> da_conv4
I0301 21:47:49.203272  9657 net.cpp:150] Setting up da_conv4
I0301 21:47:49.203297  9657 net.cpp:157] Top shape: 100 512 8 8 (3276800)
I0301 21:47:49.203305  9657 net.cpp:165] Memory required for data: 602931600
I0301 21:47:49.203330  9657 layer_factory.hpp:77] Creating layer bn4
I0301 21:47:49.203347  9657 net.cpp:106] Creating Layer bn4
I0301 21:47:49.203356  9657 net.cpp:454] bn4 <- da_conv4
I0301 21:47:49.203367  9657 net.cpp:411] bn4 -> bn4
I0301 21:47:49.204097  9657 net.cpp:150] Setting up bn4
I0301 21:47:49.204118  9657 net.cpp:157] Top shape: 100 512 8 8 (3276800)
I0301 21:47:49.204124  9657 net.cpp:165] Memory required for data: 616038800
I0301 21:47:49.204141  9657 layer_factory.hpp:77] Creating layer da_relu4
I0301 21:47:49.204156  9657 net.cpp:106] Creating Layer da_relu4
I0301 21:47:49.204165  9657 net.cpp:454] da_relu4 <- bn4
I0301 21:47:49.204180  9657 net.cpp:397] da_relu4 -> bn4 (in-place)
I0301 21:47:49.204196  9657 net.cpp:150] Setting up da_relu4
I0301 21:47:49.204207  9657 net.cpp:157] Top shape: 100 512 8 8 (3276800)
I0301 21:47:49.204215  9657 net.cpp:165] Memory required for data: 629146000
I0301 21:47:49.204218  9657 layer_factory.hpp:77] Creating layer da_conv5
I0301 21:47:49.204241  9657 net.cpp:106] Creating Layer da_conv5
I0301 21:47:49.204251  9657 net.cpp:454] da_conv5 <- bn4
I0301 21:47:49.204260  9657 net.cpp:411] da_conv5 -> da_conv5
I0301 21:47:49.226012  9657 net.cpp:150] Setting up da_conv5
I0301 21:47:49.226058  9657 net.cpp:157] Top shape: 100 128 8 8 (819200)
I0301 21:47:49.226060  9657 net.cpp:165] Memory required for data: 632422800
I0301 21:47:49.226076  9657 layer_factory.hpp:77] Creating layer bn5
I0301 21:47:49.226099  9657 net.cpp:106] Creating Layer bn5
I0301 21:47:49.226110  9657 net.cpp:454] bn5 <- da_conv5
I0301 21:47:49.226137  9657 net.cpp:411] bn5 -> bn5
I0301 21:47:49.226970  9657 net.cpp:150] Setting up bn5
I0301 21:47:49.226999  9657 net.cpp:157] Top shape: 100 128 8 8 (819200)
I0301 21:47:49.227005  9657 net.cpp:165] Memory required for data: 635699600
I0301 21:47:49.227023  9657 layer_factory.hpp:77] Creating layer da_relu5
I0301 21:47:49.227041  9657 net.cpp:106] Creating Layer da_relu5
I0301 21:47:49.227046  9657 net.cpp:454] da_relu5 <- bn5
I0301 21:47:49.227059  9657 net.cpp:397] da_relu5 -> bn5 (in-place)
I0301 21:47:49.227077  9657 net.cpp:150] Setting up da_relu5
I0301 21:47:49.227084  9657 net.cpp:157] Top shape: 100 128 8 8 (819200)
I0301 21:47:49.227093  9657 net.cpp:165] Memory required for data: 638976400
I0301 21:47:49.227099  9657 layer_factory.hpp:77] Creating layer pool5
I0301 21:47:49.227128  9657 net.cpp:106] Creating Layer pool5
I0301 21:47:49.227140  9657 net.cpp:454] pool5 <- bn5
I0301 21:47:49.227154  9657 net.cpp:411] pool5 -> pool5
I0301 21:47:49.227339  9657 net.cpp:150] Setting up pool5
I0301 21:47:49.227350  9657 net.cpp:157] Top shape: 100 128 4 4 (204800)
I0301 21:47:49.227361  9657 net.cpp:165] Memory required for data: 639795600
I0301 21:47:49.227370  9657 layer_factory.hpp:77] Creating layer fc6
I0301 21:47:49.227406  9657 net.cpp:106] Creating Layer fc6
I0301 21:47:49.227414  9657 net.cpp:454] fc6 <- pool5
I0301 21:47:49.227428  9657 net.cpp:411] fc6 -> fc6
I0301 21:47:49.513957  9657 net.cpp:150] Setting up fc6
I0301 21:47:49.514000  9657 net.cpp:157] Top shape: 100 4096 (409600)
I0301 21:47:49.514006  9657 net.cpp:165] Memory required for data: 641434000
I0301 21:47:49.514020  9657 layer_factory.hpp:77] Creating layer bn6_2
I0301 21:47:49.514036  9657 net.cpp:106] Creating Layer bn6_2
I0301 21:47:49.514045  9657 net.cpp:454] bn6_2 <- fc6
I0301 21:47:49.514065  9657 net.cpp:411] bn6_2 -> bn6_2
I0301 21:47:49.514683  9657 net.cpp:150] Setting up bn6_2
I0301 21:47:49.514698  9657 net.cpp:157] Top shape: 100 4096 (409600)
I0301 21:47:49.514704  9657 net.cpp:165] Memory required for data: 643072400
I0301 21:47:49.514717  9657 layer_factory.hpp:77] Creating layer da_relu6
I0301 21:47:49.514729  9657 net.cpp:106] Creating Layer da_relu6
I0301 21:47:49.514735  9657 net.cpp:454] da_relu6 <- bn6_2
I0301 21:47:49.514742  9657 net.cpp:397] da_relu6 -> bn6_2 (in-place)
I0301 21:47:49.514752  9657 net.cpp:150] Setting up da_relu6
I0301 21:47:49.514760  9657 net.cpp:157] Top shape: 100 4096 (409600)
I0301 21:47:49.514766  9657 net.cpp:165] Memory required for data: 644710800
I0301 21:47:49.514772  9657 layer_factory.hpp:77] Creating layer da_drop6
I0301 21:47:49.514787  9657 net.cpp:106] Creating Layer da_drop6
I0301 21:47:49.514796  9657 net.cpp:454] da_drop6 <- bn6_2
I0301 21:47:49.514806  9657 net.cpp:397] da_drop6 -> bn6_2 (in-place)
I0301 21:47:49.514864  9657 net.cpp:150] Setting up da_drop6
I0301 21:47:49.514875  9657 net.cpp:157] Top shape: 100 4096 (409600)
I0301 21:47:49.514881  9657 net.cpp:165] Memory required for data: 646349200
I0301 21:47:49.514889  9657 layer_factory.hpp:77] Creating layer fc7
I0301 21:47:49.514906  9657 net.cpp:106] Creating Layer fc7
I0301 21:47:49.514914  9657 net.cpp:454] fc7 <- bn6_2
I0301 21:47:49.514927  9657 net.cpp:411] fc7 -> fc7
I0301 21:47:50.178073  9657 net.cpp:150] Setting up fc7
I0301 21:47:50.178115  9657 net.cpp:157] Top shape: 100 4096 (409600)
I0301 21:47:50.178127  9657 net.cpp:165] Memory required for data: 647987600
I0301 21:47:50.178148  9657 layer_factory.hpp:77] Creating layer bn7
I0301 21:47:50.178174  9657 net.cpp:106] Creating Layer bn7
I0301 21:47:50.178186  9657 net.cpp:454] bn7 <- fc7
I0301 21:47:50.178205  9657 net.cpp:411] bn7 -> bn7
I0301 21:47:50.179055  9657 net.cpp:150] Setting up bn7
I0301 21:47:50.179078  9657 net.cpp:157] Top shape: 100 4096 (409600)
I0301 21:47:50.179088  9657 net.cpp:165] Memory required for data: 649626000
I0301 21:47:50.179129  9657 layer_factory.hpp:77] Creating layer da_relu7
I0301 21:47:50.179152  9657 net.cpp:106] Creating Layer da_relu7
I0301 21:47:50.179164  9657 net.cpp:454] da_relu7 <- bn7
I0301 21:47:50.179184  9657 net.cpp:397] da_relu7 -> bn7 (in-place)
I0301 21:47:50.179203  9657 net.cpp:150] Setting up da_relu7
I0301 21:47:50.179215  9657 net.cpp:157] Top shape: 100 4096 (409600)
I0301 21:47:50.179221  9657 net.cpp:165] Memory required for data: 651264400
I0301 21:47:50.179229  9657 layer_factory.hpp:77] Creating layer da_drop7
I0301 21:47:50.179250  9657 net.cpp:106] Creating Layer da_drop7
I0301 21:47:50.179257  9657 net.cpp:454] da_drop7 <- bn7
I0301 21:47:50.179280  9657 net.cpp:397] da_drop7 -> bn7 (in-place)
I0301 21:47:50.179404  9657 net.cpp:150] Setting up da_drop7
I0301 21:47:50.179419  9657 net.cpp:157] Top shape: 100 4096 (409600)
I0301 21:47:50.179424  9657 net.cpp:165] Memory required for data: 652902800
I0301 21:47:50.179431  9657 layer_factory.hpp:77] Creating layer cls_score
I0301 21:47:50.179448  9657 net.cpp:106] Creating Layer cls_score
I0301 21:47:50.179462  9657 net.cpp:454] cls_score <- bn7
I0301 21:47:50.179481  9657 net.cpp:411] cls_score -> cls_score
I0301 21:47:50.183840  9657 net.cpp:150] Setting up cls_score
I0301 21:47:50.183864  9657 net.cpp:157] Top shape: 100 19 (1900)
I0301 21:47:50.183871  9657 net.cpp:165] Memory required for data: 652910400
I0301 21:47:50.183889  9657 layer_factory.hpp:77] Creating layer loss_cls
I0301 21:47:50.183903  9657 net.cpp:106] Creating Layer loss_cls
I0301 21:47:50.183912  9657 net.cpp:454] loss_cls <- cls_score
I0301 21:47:50.183926  9657 net.cpp:454] loss_cls <- label
I0301 21:47:50.183940  9657 net.cpp:411] loss_cls -> loss_cls
…
