…
I0302 01:27:40.207401 29253 solver.cpp:91] Creating training net from net file: train.prototxt
I0302 01:27:40.208941 29253 net.cpp:49] Initializing net from parameters: 
name: "sungrbd"
state {
  phase: TRAIN
}
layer {
  name: "data"
  type: "ImageData"
  top: "data"
  top: "label"
  include {
    phase: TRAIN
  }
  transform_param {
    mirror: false
    crop_size: 128
    mean_value: 1
  }
  image_data_param {
    source: "/nfs/hn38/users/xiaolonw/sunrgbd/SUNRGBDtoolbox/trainlist2.txt"
    batch_size: 100
    shuffle: true
    new_height: 128
    new_width: 128
    root_folder: "/scratch/xiaolonw/sunrgbd/data/"
  }
}
layer {
  name: "da_conv1"
  type: "Convolution"
  bottom: "data"
  top: "da_conv1"
  param {
    lr_mult: 1
    decay_mult: 1
  }
  param {
    lr_mult: 2
    decay_mult: 0
  }
  convolution_param {
    num_output: 64
    pad: 2
    kernel_size: 5
    stride: 2
    weight_filler {
      type: "gaussian"
      std: 0.01
    }
    bias_filler {
      type: "constant"
      value: 0
    }
  }
}
layer {
  name: "bn1"
  type: "BatchNorm"
  bottom: "da_conv1"
  top: "bn1"
}
layer {
  name: "da_relu1"
  type: "ReLU"
  bottom: "bn1"
  top: "bn1"
  relu_param {
    negative_slope: 0.2
  }
}
layer {
  name: "da_conv2"
  type: "Convolution"
  bottom: "bn1"
  top: "da_conv2"
  param {
    lr_mult: 1
    decay_mult: 1
  }
  param {
    lr_mult: 2
    decay_mult: 0
  }
  convolution_param {
    num_output: 128
    pad: 2
    kernel_size: 5
    stride: 2
    weight_filler {
      type: "gaussian"
      std: 0.01
    }
    bias_filler {
      type: "constant"
      value: 1
    }
  }
}
layer {
  name: "bn2"
  type: "BatchNorm"
  bottom: "da_conv2"
  top: "bn2"
}
layer {
  name: "da_relu2"
  type: "ReLU"
  bottom: "bn2"
  top: "bn2"
  relu_param {
    negative_slope: 0.2
  }
}
layer {
  name: "da_conv3"
  type: "Convolution"
  bottom: "bn2"
  top: "da_conv3"
  param {
    lr_mult: 1
    decay_mult: 1
  }
  param {
    lr_mult: 2
    decay_mult: 0
  }
  convolution_param {
    num_output: 256
    pad: 1
    kernel_size: 3
    stride: 2
    weight_filler {
      type: "gaussian"
      std: 0.01
    }
    bias_filler {
      type: "constant"
      value: 0
    }
  }
}
layer {
  name: "bn3"
  type: "BatchNorm"
  bottom: "da_conv3"
  top: "bn3"
}
layer {
  name: "da_relu3"
  type: "ReLU"
  bottom: "bn3"
  top: "bn3"
  relu_param {
    negative_slope: 0.2
  }
}
layer {
  name: "da_conv4"
  type: "Convolution"
  bottom: "bn3"
  top: "da_conv4"
  param {
    lr_mult: 1
    decay_mult: 1
  }
  param {
    lr_mult: 2
    decay_mult: 0
  }
  convolution_param {
    num_output: 512
    pad: 1
    kernel_size: 3
    stride: 2
    weight_filler {
      type: "gaussian"
      std: 0.01
    }
    bias_filler {
      type: "constant"
      value: 1
    }
  }
}
layer {
  name: "bn4"
  type: "BatchNorm"
  bottom: "da_conv4"
  top: "bn4"
}
layer {
  name: "da_relu4"
  type: "ReLU"
  bottom: "bn4"
  top: "bn4"
  relu_param {
    negative_slope: 0.2
  }
}
layer {
  name: "da_conv5"
  type: "Convolution"
  bottom: "bn4"
  top: "da_conv5"
  param {
    lr_mult: 1
    decay_mult: 1
  }
  param {
    lr_mult: 2
    decay_mult: 0
  }
  convolution_param {
    num_output: 128
    pad: 1
    kernel_size: 3
    stride: 1
    weight_filler {
      type: "gaussian"
      std: 0.01
    }
    bias_filler {
      type: "constant"
      value: 1
    }
  }
}
layer {
  name: "bn5"
  type: "BatchNorm"
  bottom: "da_conv5"
  top: "bn5"
}
layer {
  name: "da_relu5"
  type: "ReLU"
  bottom: "bn5"
  top: "bn5"
  relu_param {
    negative_slope: 0.2
  }
}
layer {
  name: "pool5"
  type: "Pooling"
  bottom: "bn5"
  top: "pool5"
  pooling_param {
    pool: MAX
    kernel_size: 3
    stride: 2
  }
}
layer {
  name: "cls_score"
  type: "InnerProduct"
  bottom: "pool5"
  top: "cls_score"
  param {
    lr_mult: 1
    decay_mult: 1
  }
  param {
    lr_mult: 2
    decay_mult: 0
  }
  inner_product_param {
    num_output: 19
    weight_filler {
      type: "gaussian"
      std: 0.01
    }
    bias_filler {
      type: "constant"
      value: 0
    }
  }
}
layer {
  name: "loss_cls"
  type: "SoftmaxWithLoss"
  bottom: "cls_score"
  bottom: "label"
  top: "loss_cls"
}
I0302 01:27:40.209038 29253 layer_factory.hpp:77] Creating layer data
I0302 01:27:40.209059 29253 net.cpp:106] Creating Layer data
I0302 01:27:40.209065 29253 net.cpp:411] data -> data
I0302 01:27:40.209081 29253 net.cpp:411] data -> label
I0302 01:27:40.209682 29253 image_data_layer.cpp:38] Opening file /nfs/hn38/users/xiaolonw/sunrgbd/SUNRGBDtoolbox/trainlist2.txt
I0302 01:27:40.281720 29253 image_data_layer.cpp:51] Shuffling data
I0302 01:27:40.282872 29253 image_data_layer.cpp:56] A total of 4845 images.
I0302 01:27:40.297765 29253 image_data_layer.cpp:84] output data size: 100,6,128,128
I0302 01:27:40.359657 29253 net.cpp:150] Setting up data
I0302 01:27:40.359699 29253 net.cpp:157] Top shape: 100 6 128 128 (9830400)
I0302 01:27:40.359707 29253 net.cpp:157] Top shape: 100 (100)
I0302 01:27:40.359710 29253 net.cpp:165] Memory required for data: 39322000
I0302 01:27:40.359719 29253 layer_factory.hpp:77] Creating layer da_conv1
I0302 01:27:40.359741 29253 net.cpp:106] Creating Layer da_conv1
I0302 01:27:40.359746 29253 net.cpp:454] da_conv1 <- data
I0302 01:27:40.359755 29253 net.cpp:411] da_conv1 -> da_conv1
I0302 01:27:40.361129 29253 net.cpp:150] Setting up da_conv1
I0302 01:27:40.361142 29253 net.cpp:157] Top shape: 100 64 64 64 (26214400)
I0302 01:27:40.361146 29253 net.cpp:165] Memory required for data: 144179600
I0302 01:27:40.361160 29253 layer_factory.hpp:77] Creating layer bn1
I0302 01:27:40.361169 29253 net.cpp:106] Creating Layer bn1
I0302 01:27:40.361174 29253 net.cpp:454] bn1 <- da_conv1
I0302 01:27:40.361181 29253 net.cpp:411] bn1 -> bn1
I0302 01:27:40.361408 29253 net.cpp:150] Setting up bn1
I0302 01:27:40.361418 29253 net.cpp:157] Top shape: 100 64 64 64 (26214400)
I0302 01:27:40.361420 29253 net.cpp:165] Memory required for data: 249037200
I0302 01:27:40.361435 29253 layer_factory.hpp:77] Creating layer da_relu1
I0302 01:27:40.361443 29253 net.cpp:106] Creating Layer da_relu1
I0302 01:27:40.361448 29253 net.cpp:454] da_relu1 <- bn1
I0302 01:27:40.361452 29253 net.cpp:397] da_relu1 -> bn1 (in-place)
I0302 01:27:40.361465 29253 net.cpp:150] Setting up da_relu1
I0302 01:27:40.361470 29253 net.cpp:157] Top shape: 100 64 64 64 (26214400)
I0302 01:27:40.361474 29253 net.cpp:165] Memory required for data: 353894800
I0302 01:27:40.361479 29253 layer_factory.hpp:77] Creating layer da_conv2
I0302 01:27:40.361488 29253 net.cpp:106] Creating Layer da_conv2
I0302 01:27:40.361492 29253 net.cpp:454] da_conv2 <- bn1
I0302 01:27:40.361498 29253 net.cpp:411] da_conv2 -> da_conv2
I0302 01:27:40.365769 29253 net.cpp:150] Setting up da_conv2
I0302 01:27:40.365783 29253 net.cpp:157] Top shape: 100 128 32 32 (13107200)
I0302 01:27:40.365787 29253 net.cpp:165] Memory required for data: 406323600
I0302 01:27:40.365793 29253 layer_factory.hpp:77] Creating layer bn2
I0302 01:27:40.365800 29253 net.cpp:106] Creating Layer bn2
I0302 01:27:40.365803 29253 net.cpp:454] bn2 <- da_conv2
I0302 01:27:40.365808 29253 net.cpp:411] bn2 -> bn2
I0302 01:27:40.365994 29253 net.cpp:150] Setting up bn2
I0302 01:27:40.366003 29253 net.cpp:157] Top shape: 100 128 32 32 (13107200)
I0302 01:27:40.366006 29253 net.cpp:165] Memory required for data: 458752400
I0302 01:27:40.366017 29253 layer_factory.hpp:77] Creating layer da_relu2
I0302 01:27:40.366025 29253 net.cpp:106] Creating Layer da_relu2
I0302 01:27:40.366030 29253 net.cpp:454] da_relu2 <- bn2
I0302 01:27:40.366034 29253 net.cpp:397] da_relu2 -> bn2 (in-place)
I0302 01:27:40.366042 29253 net.cpp:150] Setting up da_relu2
I0302 01:27:40.366046 29253 net.cpp:157] Top shape: 100 128 32 32 (13107200)
I0302 01:27:40.366050 29253 net.cpp:165] Memory required for data: 511181200
I0302 01:27:40.366053 29253 layer_factory.hpp:77] Creating layer da_conv3
I0302 01:27:40.366060 29253 net.cpp:106] Creating Layer da_conv3
I0302 01:27:40.366065 29253 net.cpp:454] da_conv3 <- bn2
I0302 01:27:40.366070 29253 net.cpp:411] da_conv3 -> da_conv3
I0302 01:27:40.372233 29253 net.cpp:150] Setting up da_conv3
I0302 01:27:40.372248 29253 net.cpp:157] Top shape: 100 256 16 16 (6553600)
I0302 01:27:40.372251 29253 net.cpp:165] Memory required for data: 537395600
I0302 01:27:40.372259 29253 layer_factory.hpp:77] Creating layer bn3
I0302 01:27:40.372267 29253 net.cpp:106] Creating Layer bn3
I0302 01:27:40.372272 29253 net.cpp:454] bn3 <- da_conv3
I0302 01:27:40.372277 29253 net.cpp:411] bn3 -> bn3
I0302 01:27:40.372454 29253 net.cpp:150] Setting up bn3
I0302 01:27:40.372462 29253 net.cpp:157] Top shape: 100 256 16 16 (6553600)
I0302 01:27:40.372467 29253 net.cpp:165] Memory required for data: 563610000
I0302 01:27:40.372474 29253 layer_factory.hpp:77] Creating layer da_relu3
I0302 01:27:40.372483 29253 net.cpp:106] Creating Layer da_relu3
I0302 01:27:40.372488 29253 net.cpp:454] da_relu3 <- bn3
I0302 01:27:40.372493 29253 net.cpp:397] da_relu3 -> bn3 (in-place)
I0302 01:27:40.372498 29253 net.cpp:150] Setting up da_relu3
I0302 01:27:40.372503 29253 net.cpp:157] Top shape: 100 256 16 16 (6553600)
I0302 01:27:40.372505 29253 net.cpp:165] Memory required for data: 589824400
I0302 01:27:40.372509 29253 layer_factory.hpp:77] Creating layer da_conv4
I0302 01:27:40.372515 29253 net.cpp:106] Creating Layer da_conv4
I0302 01:27:40.372519 29253 net.cpp:454] da_conv4 <- bn3
I0302 01:27:40.372524 29253 net.cpp:411] da_conv4 -> da_conv4
I0302 01:27:40.392678 29253 net.cpp:150] Setting up da_conv4
I0302 01:27:40.392695 29253 net.cpp:157] Top shape: 100 512 8 8 (3276800)
I0302 01:27:40.392699 29253 net.cpp:165] Memory required for data: 602931600
I0302 01:27:40.392710 29253 layer_factory.hpp:77] Creating layer bn4
I0302 01:27:40.392719 29253 net.cpp:106] Creating Layer bn4
I0302 01:27:40.392724 29253 net.cpp:454] bn4 <- da_conv4
I0302 01:27:40.392732 29253 net.cpp:411] bn4 -> bn4
I0302 01:27:40.392920 29253 net.cpp:150] Setting up bn4
I0302 01:27:40.392928 29253 net.cpp:157] Top shape: 100 512 8 8 (3276800)
I0302 01:27:40.392932 29253 net.cpp:165] Memory required for data: 616038800
I0302 01:27:40.392941 29253 layer_factory.hpp:77] Creating layer da_relu4
I0302 01:27:40.392948 29253 net.cpp:106] Creating Layer da_relu4
I0302 01:27:40.392953 29253 net.cpp:454] da_relu4 <- bn4
I0302 01:27:40.392957 29253 net.cpp:397] da_relu4 -> bn4 (in-place)
I0302 01:27:40.392966 29253 net.cpp:150] Setting up da_relu4
I0302 01:27:40.392971 29253 net.cpp:157] Top shape: 100 512 8 8 (3276800)
I0302 01:27:40.392973 29253 net.cpp:165] Memory required for data: 629146000
I0302 01:27:40.392976 29253 layer_factory.hpp:77] Creating layer da_conv5
I0302 01:27:40.392983 29253 net.cpp:106] Creating Layer da_conv5
I0302 01:27:40.392987 29253 net.cpp:454] da_conv5 <- bn4
I0302 01:27:40.392994 29253 net.cpp:411] da_conv5 -> da_conv5
I0302 01:27:40.403224 29253 net.cpp:150] Setting up da_conv5
I0302 01:27:40.403237 29253 net.cpp:157] Top shape: 100 128 8 8 (819200)
I0302 01:27:40.403240 29253 net.cpp:165] Memory required for data: 632422800
I0302 01:27:40.403247 29253 layer_factory.hpp:77] Creating layer bn5
I0302 01:27:40.403255 29253 net.cpp:106] Creating Layer bn5
I0302 01:27:40.403259 29253 net.cpp:454] bn5 <- da_conv5
I0302 01:27:40.403264 29253 net.cpp:411] bn5 -> bn5
I0302 01:27:40.403444 29253 net.cpp:150] Setting up bn5
I0302 01:27:40.403450 29253 net.cpp:157] Top shape: 100 128 8 8 (819200)
I0302 01:27:40.403455 29253 net.cpp:165] Memory required for data: 635699600
I0302 01:27:40.403463 29253 layer_factory.hpp:77] Creating layer da_relu5
I0302 01:27:40.403470 29253 net.cpp:106] Creating Layer da_relu5
I0302 01:27:40.403475 29253 net.cpp:454] da_relu5 <- bn5
I0302 01:27:40.403480 29253 net.cpp:397] da_relu5 -> bn5 (in-place)
I0302 01:27:40.403486 29253 net.cpp:150] Setting up da_relu5
I0302 01:27:40.403491 29253 net.cpp:157] Top shape: 100 128 8 8 (819200)
I0302 01:27:40.403493 29253 net.cpp:165] Memory required for data: 638976400
I0302 01:27:40.403496 29253 layer_factory.hpp:77] Creating layer pool5
I0302 01:27:40.403504 29253 net.cpp:106] Creating Layer pool5
I0302 01:27:40.403507 29253 net.cpp:454] pool5 <- bn5
I0302 01:27:40.403512 29253 net.cpp:411] pool5 -> pool5
I0302 01:27:40.403553 29253 net.cpp:150] Setting up pool5
I0302 01:27:40.403559 29253 net.cpp:157] Top shape: 100 128 4 4 (204800)
I0302 01:27:40.403563 29253 net.cpp:165] Memory required for data: 639795600
I0302 01:27:40.403565 29253 layer_factory.hpp:77] Creating layer cls_score
I0302 01:27:40.403578 29253 net.cpp:106] Creating Layer cls_score
I0302 01:27:40.403583 29253 net.cpp:454] cls_score <- pool5
I0302 01:27:40.403587 29253 net.cpp:411] cls_score -> cls_score
I0302 01:27:40.404788 29253 net.cpp:150] Setting up cls_score
I0302 01:27:40.404800 29253 net.cpp:157] Top shape: 100 19 (1900)
I0302 01:27:40.404803 29253 net.cpp:165] Memory required for data: 639803200
I0302 01:27:40.404811 29253 layer_factory.hpp:77] Creating layer loss_cls
I0302 01:27:40.404819 29253 net.cpp:106] Creating Layer loss_cls
I0302 01:27:40.404824 29253 net.cpp:454] loss_cls <- cls_score
I0302 01:27:40.404829 29253 net.cpp:454] loss_cls <- label
I0302 01:27:40.404834 29253 net.cpp:411] loss_cls -> loss_cls
…
